{
  "layers" : [
    {
      "bottom" : "ImageTensor__0",
      "alpha" : 0.0078431377187371254,
      "operation" : 1,
      "weights" : {

      },
      "fused_relu" : 0,
      "debug_info" : "mul:0",
      "top" : "mul:0",
      "type" : "elementwise",
      "name" : "mul:0",
      "beta" : 0
    },
    {
      "bottom" : "mul:0",
      "alpha" : -1,
      "operation" : 0,
      "weights" : {

      },
      "fused_relu" : 0,
      "debug_info" : "sub:0",
      "top" : "sub:0",
      "type" : "elementwise",
      "name" : "sub:0",
      "beta" : 0
    },
    {
      "pad_r" : 0,
      "fused_relu" : 1,
      "fused_tanh" : 0,
      "debug_info" : "MobilenetV2\/Conv\/Conv2D:0",
      "pad_fill_mode" : 0,
      "pad_b" : 0,
      "pad_l" : 0,
      "top" : "relu_MobilenetV2\/Conv\/Relu6:0",
      "K" : 3,
      "blob_biases" : 1,
      "stride_x" : 2,
      "name" : "MobilenetV2\/Conv\/Conv2D:0",
      "has_batch_norm" : 0,
      "type" : "convolution",
      "n_groups" : 1,
      "pad_t" : 0,
      "stride_y" : 2,
      "has_biases" : 1,
      "C" : 32,
      "bottom" : "sub:0",
      "weights" : {
        "W_U8" : 3,
        "per_ch_qscale" : 7,
        "per_ch_qbias" : 5
      },
      "Nx" : 3,
      "pad_mode" : 1,
      "pad_value" : 0,
      "Ny" : 3,
      "n_parallel" : 1
    },
    {
      "alpha" : -1,
      "bottom" : "relu_MobilenetV2\/Conv\/Relu6:0",
      "weights" : {

      },
      "mode" : 6,
      "debug_info" : "relu_MobilenetV2\/Conv\/Relu6:0_neg",
      "top" : "relu_MobilenetV2\/Conv\/Relu6:0_neg",
      "type" : "activation",
      "name" : "relu_MobilenetV2\/Conv\/Relu6:0_neg",
      "beta" : 0
    },
    {
      "bottom" : "relu_MobilenetV2\/Conv\/Relu6:0_neg",
      "alpha" : -6,
      "operation" : 25,
      "weights" : {

      },
      "fused_relu" : 0,
      "debug_info" : "relu_MobilenetV2\/Conv\/Relu6:0_clip",
      "top" : "relu_MobilenetV2\/Conv\/Relu6:0_clip",
      "type" : "elementwise",
      "name" : "relu_MobilenetV2\/Conv\/Relu6:0_clip",
      "beta" : 0
    },
    {
      "alpha" : -1,
      "bottom" : "relu_MobilenetV2\/Conv\/Relu6:0_clip",
      "weights" : {

      },
      "mode" : 6,
      "debug_info" : "MobilenetV2\/Conv\/Relu6:0",
      "top" : "MobilenetV2\/Conv\/Relu6:0",
      "type" : "activation",
      "name" : "MobilenetV2\/Conv\/Relu6:0",
      "beta" : 0
    },
    {
      "pad_r" : 0,
      "fused_relu" : 1,
      "fused_tanh" : 0,
      "debug_info" : "MobilenetV2\/expanded_conv\/depthwise\/depthwise:0",
      "pad_fill_mode" : 0,
      "pad_b" : 0,
      "pad_l" : 0,
      "top" : "relu_MobilenetV2\/expanded_conv\/depthwise\/Relu6:0",
      "K" : 32,
      "blob_biases" : 9,
      "name" : "MobilenetV2\/expanded_conv\/depthwise\/depthwise:0",
      "has_batch_norm" : 0,
      "type" : "convolution",
      "n_groups" : 32,
      "pad_t" : 0,
      "has_biases" : 1,
      "C" : 32,
      "bottom" : "MobilenetV2\/Conv\/Relu6:0",
      "weights" : {
        "W_U8" : 11,
        "per_ch_qscale" : 15,
        "per_ch_qbias" : 13
      },
      "Nx" : 3,
      "pad_mode" : 1,
      "pad_value" : 0,
      "Ny" : 3,
      "n_parallel" : 1
    },
    {
      "alpha" : -1,
      "bottom" : "relu_MobilenetV2\/expanded_conv\/depthwise\/Relu6:0",
      "weights" : {

      },
      "mode" : 6,
      "debug_info" : "relu_MobilenetV2\/expanded_conv\/depthwise\/Relu6:0_neg",
      "top" : "relu_MobilenetV2\/expanded_conv\/depthwise\/Relu6:0_neg",
      "type" : "activation",
      "name" : "relu_MobilenetV2\/expanded_conv\/depthwise\/Relu6:0_neg",
      "beta" : 0
    },
    {
      "bottom" : "relu_MobilenetV2\/expanded_conv\/depthwise\/Relu6:0_neg",
      "alpha" : -6,
      "operation" : 25,
      "weights" : {

      },
      "fused_relu" : 0,
      "debug_info" : "relu_MobilenetV2\/expanded_conv\/depthwise\/Relu6:0_clip",
      "top" : "relu_MobilenetV2\/expanded_conv\/depthwise\/Relu6:0_clip",
      "type" : "elementwise",
      "name" : "relu_MobilenetV2\/expanded_conv\/depthwise\/Relu6:0_clip",
      "beta" : 0
    },
    {
      "alpha" : -1,
      "bottom" : "relu_MobilenetV2\/expanded_conv\/depthwise\/Relu6:0_clip",
      "weights" : {

      },
      "mode" : 6,
      "debug_info" : "MobilenetV2\/expanded_conv\/depthwise\/Relu6:0",
      "top" : "MobilenetV2\/expanded_conv\/depthwise\/Relu6:0",
      "type" : "activation",
      "name" : "MobilenetV2\/expanded_conv\/depthwise\/Relu6:0",
      "beta" : 0
    },
    {
      "pad_r" : 0,
      "fused_relu" : 0,
      "fused_tanh" : 0,
      "debug_info" : "MobilenetV2\/expanded_conv\/project\/Conv2D:0",
      "pad_fill_mode" : 0,
      "pad_b" : 0,
      "pad_l" : 0,
      "top" : "MobilenetV2\/expanded_conv\/project\/BatchNorm\/FusedBatchNorm:0",
      "K" : 32,
      "blob_biases" : 17,
      "name" : "MobilenetV2\/expanded_conv\/project\/Conv2D:0",
      "has_batch_norm" : 0,
      "type" : "convolution",
      "n_groups" : 1,
      "pad_t" : 0,
      "has_biases" : 1,
      "C" : 16,
      "bottom" : "MobilenetV2\/expanded_conv\/depthwise\/Relu6:0",
      "weights" : {
        "W_U8" : 19,
        "per_ch_qscale" : 23,
        "per_ch_qbias" : 21
      },
      "Nx" : 1,
      "pad_mode" : 1,
      "pad_value" : 0,
      "Ny" : 1,
      "n_parallel" : 1
    },
    {
      "pad_r" : 0,
      "fused_relu" : 1,
      "fused_tanh" : 0,
      "debug_info" : "MobilenetV2\/expanded_conv_1\/expand\/Conv2D:0",
      "pad_fill_mode" : 0,
      "pad_b" : 0,
      "pad_l" : 0,
      "top" : "relu_MobilenetV2\/expanded_conv_1\/expand\/Relu6:0",
      "K" : 16,
      "blob_biases" : 25,
      "name" : "MobilenetV2\/expanded_conv_1\/expand\/Conv2D:0",
      "has_batch_norm" : 0,
      "type" : "convolution",
      "n_groups" : 1,
      "pad_t" : 0,
      "has_biases" : 1,
      "C" : 96,
      "bottom" : "MobilenetV2\/expanded_conv\/project\/BatchNorm\/FusedBatchNorm:0",
      "weights" : {
        "W_U8" : 27,
        "per_ch_qscale" : 31,
        "per_ch_qbias" : 29
      },
      "Nx" : 1,
      "pad_mode" : 1,
      "pad_value" : 0,
      "Ny" : 1,
      "n_parallel" : 1
    },
    {
      "alpha" : -1,
      "bottom" : "relu_MobilenetV2\/expanded_conv_1\/expand\/Relu6:0",
      "weights" : {

      },
      "mode" : 6,
      "debug_info" : "relu_MobilenetV2\/expanded_conv_1\/expand\/Relu6:0_neg",
      "top" : "relu_MobilenetV2\/expanded_conv_1\/expand\/Relu6:0_neg",
      "type" : "activation",
      "name" : "relu_MobilenetV2\/expanded_conv_1\/expand\/Relu6:0_neg",
      "beta" : 0
    },
    {
      "bottom" : "relu_MobilenetV2\/expanded_conv_1\/expand\/Relu6:0_neg",
      "alpha" : -6,
      "operation" : 25,
      "weights" : {

      },
      "fused_relu" : 0,
      "debug_info" : "relu_MobilenetV2\/expanded_conv_1\/expand\/Relu6:0_clip",
      "top" : "relu_MobilenetV2\/expanded_conv_1\/expand\/Relu6:0_clip",
      "type" : "elementwise",
      "name" : "relu_MobilenetV2\/expanded_conv_1\/expand\/Relu6:0_clip",
      "beta" : 0
    },
    {
      "alpha" : -1,
      "bottom" : "relu_MobilenetV2\/expanded_conv_1\/expand\/Relu6:0_clip",
      "weights" : {

      },
      "mode" : 6,
      "debug_info" : "MobilenetV2\/expanded_conv_1\/expand\/Relu6:0",
      "top" : "MobilenetV2\/expanded_conv_1\/expand\/Relu6:0",
      "type" : "activation",
      "name" : "MobilenetV2\/expanded_conv_1\/expand\/Relu6:0",
      "beta" : 0
    },
    {
      "pad_r" : 0,
      "fused_relu" : 1,
      "fused_tanh" : 0,
      "debug_info" : "MobilenetV2\/expanded_conv_1\/depthwise\/depthwise:0",
      "pad_fill_mode" : 0,
      "pad_b" : 0,
      "pad_l" : 0,
      "top" : "relu_MobilenetV2\/expanded_conv_1\/depthwise\/Relu6:0",
      "K" : 96,
      "blob_biases" : 33,
      "stride_x" : 2,
      "name" : "MobilenetV2\/expanded_conv_1\/depthwise\/depthwise:0",
      "has_batch_norm" : 0,
      "type" : "convolution",
      "n_groups" : 96,
      "pad_t" : 0,
      "stride_y" : 2,
      "has_biases" : 1,
      "C" : 96,
      "bottom" : "MobilenetV2\/expanded_conv_1\/expand\/Relu6:0",
      "weights" : {
        "W_U8" : 35,
        "per_ch_qscale" : 39,
        "per_ch_qbias" : 37
      },
      "Nx" : 3,
      "pad_mode" : 1,
      "pad_value" : 0,
      "Ny" : 3,
      "n_parallel" : 1
    },
    {
      "alpha" : -1,
      "bottom" : "relu_MobilenetV2\/expanded_conv_1\/depthwise\/Relu6:0",
      "weights" : {

      },
      "mode" : 6,
      "debug_info" : "relu_MobilenetV2\/expanded_conv_1\/depthwise\/Relu6:0_neg",
      "top" : "relu_MobilenetV2\/expanded_conv_1\/depthwise\/Relu6:0_neg",
      "type" : "activation",
      "name" : "relu_MobilenetV2\/expanded_conv_1\/depthwise\/Relu6:0_neg",
      "beta" : 0
    },
    {
      "bottom" : "relu_MobilenetV2\/expanded_conv_1\/depthwise\/Relu6:0_neg",
      "alpha" : -6,
      "operation" : 25,
      "weights" : {

      },
      "fused_relu" : 0,
      "debug_info" : "relu_MobilenetV2\/expanded_conv_1\/depthwise\/Relu6:0_clip",
      "top" : "relu_MobilenetV2\/expanded_conv_1\/depthwise\/Relu6:0_clip",
      "type" : "elementwise",
      "name" : "relu_MobilenetV2\/expanded_conv_1\/depthwise\/Relu6:0_clip",
      "beta" : 0
    },
    {
      "alpha" : -1,
      "bottom" : "relu_MobilenetV2\/expanded_conv_1\/depthwise\/Relu6:0_clip",
      "weights" : {

      },
      "mode" : 6,
      "debug_info" : "MobilenetV2\/expanded_conv_1\/depthwise\/Relu6:0",
      "top" : "MobilenetV2\/expanded_conv_1\/depthwise\/Relu6:0",
      "type" : "activation",
      "name" : "MobilenetV2\/expanded_conv_1\/depthwise\/Relu6:0",
      "beta" : 0
    },
    {
      "pad_r" : 0,
      "fused_relu" : 0,
      "fused_tanh" : 0,
      "debug_info" : "MobilenetV2\/expanded_conv_1\/project\/Conv2D:0",
      "pad_fill_mode" : 0,
      "pad_b" : 0,
      "pad_l" : 0,
      "top" : "MobilenetV2\/expanded_conv_1\/project\/BatchNorm\/FusedBatchNorm:0",
      "K" : 96,
      "blob_biases" : 41,
      "name" : "MobilenetV2\/expanded_conv_1\/project\/Conv2D:0",
      "has_batch_norm" : 0,
      "type" : "convolution",
      "n_groups" : 1,
      "pad_t" : 0,
      "has_biases" : 1,
      "C" : 24,
      "bottom" : "MobilenetV2\/expanded_conv_1\/depthwise\/Relu6:0",
      "weights" : {
        "W_U8" : 43,
        "per_ch_qscale" : 47,
        "per_ch_qbias" : 45
      },
      "Nx" : 1,
      "pad_mode" : 1,
      "pad_value" : 0,
      "Ny" : 1,
      "n_parallel" : 1
    },
    {
      "pad_r" : 0,
      "fused_relu" : 1,
      "fused_tanh" : 0,
      "debug_info" : "MobilenetV2\/expanded_conv_2\/expand\/Conv2D:0",
      "pad_fill_mode" : 0,
      "pad_b" : 0,
      "pad_l" : 0,
      "top" : "relu_MobilenetV2\/expanded_conv_2\/expand\/Relu6:0",
      "K" : 24,
      "blob_biases" : 49,
      "name" : "MobilenetV2\/expanded_conv_2\/expand\/Conv2D:0",
      "has_batch_norm" : 0,
      "type" : "convolution",
      "n_groups" : 1,
      "pad_t" : 0,
      "has_biases" : 1,
      "C" : 144,
      "bottom" : "MobilenetV2\/expanded_conv_1\/project\/BatchNorm\/FusedBatchNorm:0",
      "weights" : {
        "W_U8" : 51,
        "per_ch_qscale" : 55,
        "per_ch_qbias" : 53
      },
      "Nx" : 1,
      "pad_mode" : 1,
      "pad_value" : 0,
      "Ny" : 1,
      "n_parallel" : 1
    },
    {
      "alpha" : -1,
      "bottom" : "relu_MobilenetV2\/expanded_conv_2\/expand\/Relu6:0",
      "weights" : {

      },
      "mode" : 6,
      "debug_info" : "relu_MobilenetV2\/expanded_conv_2\/expand\/Relu6:0_neg",
      "top" : "relu_MobilenetV2\/expanded_conv_2\/expand\/Relu6:0_neg",
      "type" : "activation",
      "name" : "relu_MobilenetV2\/expanded_conv_2\/expand\/Relu6:0_neg",
      "beta" : 0
    },
    {
      "bottom" : "relu_MobilenetV2\/expanded_conv_2\/expand\/Relu6:0_neg",
      "alpha" : -6,
      "operation" : 25,
      "weights" : {

      },
      "fused_relu" : 0,
      "debug_info" : "relu_MobilenetV2\/expanded_conv_2\/expand\/Relu6:0_clip",
      "top" : "relu_MobilenetV2\/expanded_conv_2\/expand\/Relu6:0_clip",
      "type" : "elementwise",
      "name" : "relu_MobilenetV2\/expanded_conv_2\/expand\/Relu6:0_clip",
      "beta" : 0
    },
    {
      "alpha" : -1,
      "bottom" : "relu_MobilenetV2\/expanded_conv_2\/expand\/Relu6:0_clip",
      "weights" : {

      },
      "mode" : 6,
      "debug_info" : "MobilenetV2\/expanded_conv_2\/expand\/Relu6:0",
      "top" : "MobilenetV2\/expanded_conv_2\/expand\/Relu6:0",
      "type" : "activation",
      "name" : "MobilenetV2\/expanded_conv_2\/expand\/Relu6:0",
      "beta" : 0
    },
    {
      "pad_r" : 0,
      "fused_relu" : 1,
      "fused_tanh" : 0,
      "debug_info" : "MobilenetV2\/expanded_conv_2\/depthwise\/depthwise:0",
      "pad_fill_mode" : 0,
      "pad_b" : 0,
      "pad_l" : 0,
      "top" : "relu_MobilenetV2\/expanded_conv_2\/depthwise\/Relu6:0",
      "K" : 144,
      "blob_biases" : 57,
      "name" : "MobilenetV2\/expanded_conv_2\/depthwise\/depthwise:0",
      "has_batch_norm" : 0,
      "type" : "convolution",
      "n_groups" : 144,
      "pad_t" : 0,
      "has_biases" : 1,
      "C" : 144,
      "bottom" : "MobilenetV2\/expanded_conv_2\/expand\/Relu6:0",
      "weights" : {
        "W_U8" : 59,
        "per_ch_qscale" : 63,
        "per_ch_qbias" : 61
      },
      "Nx" : 3,
      "pad_mode" : 1,
      "pad_value" : 0,
      "Ny" : 3,
      "n_parallel" : 1
    },
    {
      "alpha" : -1,
      "bottom" : "relu_MobilenetV2\/expanded_conv_2\/depthwise\/Relu6:0",
      "weights" : {

      },
      "mode" : 6,
      "debug_info" : "relu_MobilenetV2\/expanded_conv_2\/depthwise\/Relu6:0_neg",
      "top" : "relu_MobilenetV2\/expanded_conv_2\/depthwise\/Relu6:0_neg",
      "type" : "activation",
      "name" : "relu_MobilenetV2\/expanded_conv_2\/depthwise\/Relu6:0_neg",
      "beta" : 0
    },
    {
      "bottom" : "relu_MobilenetV2\/expanded_conv_2\/depthwise\/Relu6:0_neg",
      "alpha" : -6,
      "operation" : 25,
      "weights" : {

      },
      "fused_relu" : 0,
      "debug_info" : "relu_MobilenetV2\/expanded_conv_2\/depthwise\/Relu6:0_clip",
      "top" : "relu_MobilenetV2\/expanded_conv_2\/depthwise\/Relu6:0_clip",
      "type" : "elementwise",
      "name" : "relu_MobilenetV2\/expanded_conv_2\/depthwise\/Relu6:0_clip",
      "beta" : 0
    },
    {
      "alpha" : -1,
      "bottom" : "relu_MobilenetV2\/expanded_conv_2\/depthwise\/Relu6:0_clip",
      "weights" : {

      },
      "mode" : 6,
      "debug_info" : "MobilenetV2\/expanded_conv_2\/depthwise\/Relu6:0",
      "top" : "MobilenetV2\/expanded_conv_2\/depthwise\/Relu6:0",
      "type" : "activation",
      "name" : "MobilenetV2\/expanded_conv_2\/depthwise\/Relu6:0",
      "beta" : 0
    },
    {
      "pad_r" : 0,
      "fused_relu" : 1,
      "fused_tanh" : 0,
      "debug_info" : "decoder\/feature_projection0\/Conv2D:0",
      "pad_fill_mode" : 0,
      "pad_b" : 0,
      "pad_l" : 0,
      "top" : "decoder\/feature_projection0\/Relu:0",
      "K" : 144,
      "blob_biases" : 65,
      "name" : "decoder\/feature_projection0\/Conv2D:0",
      "has_batch_norm" : 0,
      "type" : "convolution",
      "n_groups" : 1,
      "pad_t" : 0,
      "has_biases" : 1,
      "C" : 48,
      "bottom" : "MobilenetV2\/expanded_conv_2\/depthwise\/Relu6:0",
      "weights" : {
        "W_U8" : 67,
        "per_ch_qscale" : 71,
        "per_ch_qbias" : 69
      },
      "Nx" : 1,
      "pad_mode" : 1,
      "pad_value" : 0,
      "Ny" : 1,
      "n_parallel" : 1
    },
    {
      "bottom" : "decoder\/feature_projection0\/Relu:0",
      "target_size_w" : 97,
      "spatial_scale" : 1,
      "weights" : {

      },
      "grid_sampling_mode" : 1,
      "debug_info" : "decoder\/ResizeBilinear_1:0",
      "target_size_h" : 97,
      "top" : "decoder\/ResizeBilinear_1:0",
      "type" : "crop_and_resize",
      "name" : "decoder\/ResizeBilinear_1:0",
      "crop_index_mode" : 0
    },
    {
      "pad_r" : 0,
      "fused_relu" : 0,
      "fused_tanh" : 0,
      "debug_info" : "MobilenetV2\/expanded_conv_2\/project\/Conv2D:0",
      "pad_fill_mode" : 0,
      "pad_b" : 0,
      "pad_l" : 0,
      "top" : "MobilenetV2\/expanded_conv_2\/project\/BatchNorm\/FusedBatchNorm:0",
      "K" : 144,
      "blob_biases" : 73,
      "name" : "MobilenetV2\/expanded_conv_2\/project\/Conv2D:0",
      "has_batch_norm" : 0,
      "type" : "convolution",
      "n_groups" : 1,
      "pad_t" : 0,
      "has_biases" : 1,
      "C" : 24,
      "bottom" : "MobilenetV2\/expanded_conv_2\/depthwise\/Relu6:0",
      "weights" : {
        "W_U8" : 75,
        "per_ch_qscale" : 79,
        "per_ch_qbias" : 77
      },
      "Nx" : 1,
      "pad_mode" : 1,
      "pad_value" : 0,
      "Ny" : 1,
      "n_parallel" : 1
    },
    {
      "bottom" : "MobilenetV2\/expanded_conv_2\/project\/BatchNorm\/FusedBatchNorm:0,MobilenetV2\/expanded_conv_1\/project\/BatchNorm\/FusedBatchNorm:0",
      "alpha" : 1,
      "operation" : 0,
      "weights" : {

      },
      "fused_relu" : 0,
      "debug_info" : "MobilenetV2\/expanded_conv_2\/add:0",
      "top" : "MobilenetV2\/expanded_conv_2\/add:0",
      "type" : "elementwise",
      "name" : "MobilenetV2\/expanded_conv_2\/add:0",
      "beta" : 0
    },
    {
      "pad_r" : 0,
      "fused_relu" : 1,
      "fused_tanh" : 0,
      "debug_info" : "MobilenetV2\/expanded_conv_3\/expand\/Conv2D:0",
      "pad_fill_mode" : 0,
      "pad_b" : 0,
      "pad_l" : 0,
      "top" : "relu_MobilenetV2\/expanded_conv_3\/expand\/Relu6:0",
      "K" : 24,
      "blob_biases" : 81,
      "name" : "MobilenetV2\/expanded_conv_3\/expand\/Conv2D:0",
      "has_batch_norm" : 0,
      "type" : "convolution",
      "n_groups" : 1,
      "pad_t" : 0,
      "has_biases" : 1,
      "C" : 144,
      "bottom" : "MobilenetV2\/expanded_conv_2\/add:0",
      "weights" : {
        "W_U8" : 83,
        "per_ch_qscale" : 87,
        "per_ch_qbias" : 85
      },
      "Nx" : 1,
      "pad_mode" : 1,
      "pad_value" : 0,
      "Ny" : 1,
      "n_parallel" : 1
    },
    {
      "alpha" : -1,
      "bottom" : "relu_MobilenetV2\/expanded_conv_3\/expand\/Relu6:0",
      "weights" : {

      },
      "mode" : 6,
      "debug_info" : "relu_MobilenetV2\/expanded_conv_3\/expand\/Relu6:0_neg",
      "top" : "relu_MobilenetV2\/expanded_conv_3\/expand\/Relu6:0_neg",
      "type" : "activation",
      "name" : "relu_MobilenetV2\/expanded_conv_3\/expand\/Relu6:0_neg",
      "beta" : 0
    },
    {
      "bottom" : "relu_MobilenetV2\/expanded_conv_3\/expand\/Relu6:0_neg",
      "alpha" : -6,
      "operation" : 25,
      "weights" : {

      },
      "fused_relu" : 0,
      "debug_info" : "relu_MobilenetV2\/expanded_conv_3\/expand\/Relu6:0_clip",
      "top" : "relu_MobilenetV2\/expanded_conv_3\/expand\/Relu6:0_clip",
      "type" : "elementwise",
      "name" : "relu_MobilenetV2\/expanded_conv_3\/expand\/Relu6:0_clip",
      "beta" : 0
    },
    {
      "alpha" : -1,
      "bottom" : "relu_MobilenetV2\/expanded_conv_3\/expand\/Relu6:0_clip",
      "weights" : {

      },
      "mode" : 6,
      "debug_info" : "MobilenetV2\/expanded_conv_3\/expand\/Relu6:0",
      "top" : "MobilenetV2\/expanded_conv_3\/expand\/Relu6:0",
      "type" : "activation",
      "name" : "MobilenetV2\/expanded_conv_3\/expand\/Relu6:0",
      "beta" : 0
    },
    {
      "pad_r" : 0,
      "fused_relu" : 1,
      "fused_tanh" : 0,
      "debug_info" : "MobilenetV2\/expanded_conv_3\/depthwise\/depthwise:0",
      "pad_fill_mode" : 0,
      "pad_b" : 0,
      "pad_l" : 0,
      "top" : "relu_MobilenetV2\/expanded_conv_3\/depthwise\/Relu6:0",
      "K" : 144,
      "blob_biases" : 89,
      "stride_x" : 2,
      "name" : "MobilenetV2\/expanded_conv_3\/depthwise\/depthwise:0",
      "has_batch_norm" : 0,
      "type" : "convolution",
      "n_groups" : 144,
      "pad_t" : 0,
      "stride_y" : 2,
      "has_biases" : 1,
      "C" : 144,
      "bottom" : "MobilenetV2\/expanded_conv_3\/expand\/Relu6:0",
      "weights" : {
        "W_U8" : 91,
        "per_ch_qscale" : 95,
        "per_ch_qbias" : 93
      },
      "Nx" : 3,
      "pad_mode" : 1,
      "pad_value" : 0,
      "Ny" : 3,
      "n_parallel" : 1
    },
    {
      "alpha" : -1,
      "bottom" : "relu_MobilenetV2\/expanded_conv_3\/depthwise\/Relu6:0",
      "weights" : {

      },
      "mode" : 6,
      "debug_info" : "relu_MobilenetV2\/expanded_conv_3\/depthwise\/Relu6:0_neg",
      "top" : "relu_MobilenetV2\/expanded_conv_3\/depthwise\/Relu6:0_neg",
      "type" : "activation",
      "name" : "relu_MobilenetV2\/expanded_conv_3\/depthwise\/Relu6:0_neg",
      "beta" : 0
    },
    {
      "bottom" : "relu_MobilenetV2\/expanded_conv_3\/depthwise\/Relu6:0_neg",
      "alpha" : -6,
      "operation" : 25,
      "weights" : {

      },
      "fused_relu" : 0,
      "debug_info" : "relu_MobilenetV2\/expanded_conv_3\/depthwise\/Relu6:0_clip",
      "top" : "relu_MobilenetV2\/expanded_conv_3\/depthwise\/Relu6:0_clip",
      "type" : "elementwise",
      "name" : "relu_MobilenetV2\/expanded_conv_3\/depthwise\/Relu6:0_clip",
      "beta" : 0
    },
    {
      "alpha" : -1,
      "bottom" : "relu_MobilenetV2\/expanded_conv_3\/depthwise\/Relu6:0_clip",
      "weights" : {

      },
      "mode" : 6,
      "debug_info" : "MobilenetV2\/expanded_conv_3\/depthwise\/Relu6:0",
      "top" : "MobilenetV2\/expanded_conv_3\/depthwise\/Relu6:0",
      "type" : "activation",
      "name" : "MobilenetV2\/expanded_conv_3\/depthwise\/Relu6:0",
      "beta" : 0
    },
    {
      "pad_r" : 0,
      "fused_relu" : 0,
      "fused_tanh" : 0,
      "debug_info" : "MobilenetV2\/expanded_conv_3\/project\/Conv2D:0",
      "pad_fill_mode" : 0,
      "pad_b" : 0,
      "pad_l" : 0,
      "top" : "MobilenetV2\/expanded_conv_3\/project\/BatchNorm\/FusedBatchNorm:0",
      "K" : 144,
      "blob_biases" : 97,
      "name" : "MobilenetV2\/expanded_conv_3\/project\/Conv2D:0",
      "has_batch_norm" : 0,
      "type" : "convolution",
      "n_groups" : 1,
      "pad_t" : 0,
      "has_biases" : 1,
      "C" : 32,
      "bottom" : "MobilenetV2\/expanded_conv_3\/depthwise\/Relu6:0",
      "weights" : {
        "W_U8" : 99,
        "per_ch_qscale" : 103,
        "per_ch_qbias" : 101
      },
      "Nx" : 1,
      "pad_mode" : 1,
      "pad_value" : 0,
      "Ny" : 1,
      "n_parallel" : 1
    },
    {
      "pad_r" : 0,
      "fused_relu" : 1,
      "fused_tanh" : 0,
      "debug_info" : "MobilenetV2\/expanded_conv_4\/expand\/Conv2D:0",
      "pad_fill_mode" : 0,
      "pad_b" : 0,
      "pad_l" : 0,
      "top" : "relu_MobilenetV2\/expanded_conv_4\/expand\/Relu6:0",
      "K" : 32,
      "blob_biases" : 105,
      "name" : "MobilenetV2\/expanded_conv_4\/expand\/Conv2D:0",
      "has_batch_norm" : 0,
      "type" : "convolution",
      "n_groups" : 1,
      "pad_t" : 0,
      "has_biases" : 1,
      "C" : 192,
      "bottom" : "MobilenetV2\/expanded_conv_3\/project\/BatchNorm\/FusedBatchNorm:0",
      "weights" : {
        "W_U8" : 107,
        "per_ch_qscale" : 111,
        "per_ch_qbias" : 109
      },
      "Nx" : 1,
      "pad_mode" : 1,
      "pad_value" : 0,
      "Ny" : 1,
      "n_parallel" : 1
    },
    {
      "alpha" : -1,
      "bottom" : "relu_MobilenetV2\/expanded_conv_4\/expand\/Relu6:0",
      "weights" : {

      },
      "mode" : 6,
      "debug_info" : "relu_MobilenetV2\/expanded_conv_4\/expand\/Relu6:0_neg",
      "top" : "relu_MobilenetV2\/expanded_conv_4\/expand\/Relu6:0_neg",
      "type" : "activation",
      "name" : "relu_MobilenetV2\/expanded_conv_4\/expand\/Relu6:0_neg",
      "beta" : 0
    },
    {
      "bottom" : "relu_MobilenetV2\/expanded_conv_4\/expand\/Relu6:0_neg",
      "alpha" : -6,
      "operation" : 25,
      "weights" : {

      },
      "fused_relu" : 0,
      "debug_info" : "relu_MobilenetV2\/expanded_conv_4\/expand\/Relu6:0_clip",
      "top" : "relu_MobilenetV2\/expanded_conv_4\/expand\/Relu6:0_clip",
      "type" : "elementwise",
      "name" : "relu_MobilenetV2\/expanded_conv_4\/expand\/Relu6:0_clip",
      "beta" : 0
    },
    {
      "alpha" : -1,
      "bottom" : "relu_MobilenetV2\/expanded_conv_4\/expand\/Relu6:0_clip",
      "weights" : {

      },
      "mode" : 6,
      "debug_info" : "MobilenetV2\/expanded_conv_4\/expand\/Relu6:0",
      "top" : "MobilenetV2\/expanded_conv_4\/expand\/Relu6:0",
      "type" : "activation",
      "name" : "MobilenetV2\/expanded_conv_4\/expand\/Relu6:0",
      "beta" : 0
    },
    {
      "pad_r" : 0,
      "fused_relu" : 1,
      "fused_tanh" : 0,
      "debug_info" : "MobilenetV2\/expanded_conv_4\/depthwise\/depthwise:0",
      "pad_fill_mode" : 0,
      "pad_b" : 0,
      "pad_l" : 0,
      "top" : "relu_MobilenetV2\/expanded_conv_4\/depthwise\/Relu6:0",
      "K" : 192,
      "blob_biases" : 113,
      "name" : "MobilenetV2\/expanded_conv_4\/depthwise\/depthwise:0",
      "has_batch_norm" : 0,
      "type" : "convolution",
      "n_groups" : 192,
      "pad_t" : 0,
      "has_biases" : 1,
      "C" : 192,
      "bottom" : "MobilenetV2\/expanded_conv_4\/expand\/Relu6:0",
      "weights" : {
        "W_U8" : 115,
        "per_ch_qscale" : 119,
        "per_ch_qbias" : 117
      },
      "Nx" : 3,
      "pad_mode" : 1,
      "pad_value" : 0,
      "Ny" : 3,
      "n_parallel" : 1
    },
    {
      "alpha" : -1,
      "bottom" : "relu_MobilenetV2\/expanded_conv_4\/depthwise\/Relu6:0",
      "weights" : {

      },
      "mode" : 6,
      "debug_info" : "relu_MobilenetV2\/expanded_conv_4\/depthwise\/Relu6:0_neg",
      "top" : "relu_MobilenetV2\/expanded_conv_4\/depthwise\/Relu6:0_neg",
      "type" : "activation",
      "name" : "relu_MobilenetV2\/expanded_conv_4\/depthwise\/Relu6:0_neg",
      "beta" : 0
    },
    {
      "bottom" : "relu_MobilenetV2\/expanded_conv_4\/depthwise\/Relu6:0_neg",
      "alpha" : -6,
      "operation" : 25,
      "weights" : {

      },
      "fused_relu" : 0,
      "debug_info" : "relu_MobilenetV2\/expanded_conv_4\/depthwise\/Relu6:0_clip",
      "top" : "relu_MobilenetV2\/expanded_conv_4\/depthwise\/Relu6:0_clip",
      "type" : "elementwise",
      "name" : "relu_MobilenetV2\/expanded_conv_4\/depthwise\/Relu6:0_clip",
      "beta" : 0
    },
    {
      "alpha" : -1,
      "bottom" : "relu_MobilenetV2\/expanded_conv_4\/depthwise\/Relu6:0_clip",
      "weights" : {

      },
      "mode" : 6,
      "debug_info" : "MobilenetV2\/expanded_conv_4\/depthwise\/Relu6:0",
      "top" : "MobilenetV2\/expanded_conv_4\/depthwise\/Relu6:0",
      "type" : "activation",
      "name" : "MobilenetV2\/expanded_conv_4\/depthwise\/Relu6:0",
      "beta" : 0
    },
    {
      "pad_r" : 0,
      "fused_relu" : 0,
      "fused_tanh" : 0,
      "debug_info" : "MobilenetV2\/expanded_conv_4\/project\/Conv2D:0",
      "pad_fill_mode" : 0,
      "pad_b" : 0,
      "pad_l" : 0,
      "top" : "MobilenetV2\/expanded_conv_4\/project\/BatchNorm\/FusedBatchNorm:0",
      "K" : 192,
      "blob_biases" : 121,
      "name" : "MobilenetV2\/expanded_conv_4\/project\/Conv2D:0",
      "has_batch_norm" : 0,
      "type" : "convolution",
      "n_groups" : 1,
      "pad_t" : 0,
      "has_biases" : 1,
      "C" : 32,
      "bottom" : "MobilenetV2\/expanded_conv_4\/depthwise\/Relu6:0",
      "weights" : {
        "W_U8" : 123,
        "per_ch_qscale" : 127,
        "per_ch_qbias" : 125
      },
      "Nx" : 1,
      "pad_mode" : 1,
      "pad_value" : 0,
      "Ny" : 1,
      "n_parallel" : 1
    },
    {
      "bottom" : "MobilenetV2\/expanded_conv_4\/project\/BatchNorm\/FusedBatchNorm:0,MobilenetV2\/expanded_conv_3\/project\/BatchNorm\/FusedBatchNorm:0",
      "alpha" : 1,
      "operation" : 0,
      "weights" : {

      },
      "fused_relu" : 0,
      "debug_info" : "MobilenetV2\/expanded_conv_4\/add:0",
      "top" : "MobilenetV2\/expanded_conv_4\/add:0",
      "type" : "elementwise",
      "name" : "MobilenetV2\/expanded_conv_4\/add:0",
      "beta" : 0
    },
    {
      "pad_r" : 0,
      "fused_relu" : 1,
      "fused_tanh" : 0,
      "debug_info" : "MobilenetV2\/expanded_conv_5\/expand\/Conv2D:0",
      "pad_fill_mode" : 0,
      "pad_b" : 0,
      "pad_l" : 0,
      "top" : "relu_MobilenetV2\/expanded_conv_5\/expand\/Relu6:0",
      "K" : 32,
      "blob_biases" : 129,
      "name" : "MobilenetV2\/expanded_conv_5\/expand\/Conv2D:0",
      "has_batch_norm" : 0,
      "type" : "convolution",
      "n_groups" : 1,
      "pad_t" : 0,
      "has_biases" : 1,
      "C" : 192,
      "bottom" : "MobilenetV2\/expanded_conv_4\/add:0",
      "weights" : {
        "W_U8" : 131,
        "per_ch_qscale" : 135,
        "per_ch_qbias" : 133
      },
      "Nx" : 1,
      "pad_mode" : 1,
      "pad_value" : 0,
      "Ny" : 1,
      "n_parallel" : 1
    },
    {
      "alpha" : -1,
      "bottom" : "relu_MobilenetV2\/expanded_conv_5\/expand\/Relu6:0",
      "weights" : {

      },
      "mode" : 6,
      "debug_info" : "relu_MobilenetV2\/expanded_conv_5\/expand\/Relu6:0_neg",
      "top" : "relu_MobilenetV2\/expanded_conv_5\/expand\/Relu6:0_neg",
      "type" : "activation",
      "name" : "relu_MobilenetV2\/expanded_conv_5\/expand\/Relu6:0_neg",
      "beta" : 0
    },
    {
      "bottom" : "relu_MobilenetV2\/expanded_conv_5\/expand\/Relu6:0_neg",
      "alpha" : -6,
      "operation" : 25,
      "weights" : {

      },
      "fused_relu" : 0,
      "debug_info" : "relu_MobilenetV2\/expanded_conv_5\/expand\/Relu6:0_clip",
      "top" : "relu_MobilenetV2\/expanded_conv_5\/expand\/Relu6:0_clip",
      "type" : "elementwise",
      "name" : "relu_MobilenetV2\/expanded_conv_5\/expand\/Relu6:0_clip",
      "beta" : 0
    },
    {
      "alpha" : -1,
      "bottom" : "relu_MobilenetV2\/expanded_conv_5\/expand\/Relu6:0_clip",
      "weights" : {

      },
      "mode" : 6,
      "debug_info" : "MobilenetV2\/expanded_conv_5\/expand\/Relu6:0",
      "top" : "MobilenetV2\/expanded_conv_5\/expand\/Relu6:0",
      "type" : "activation",
      "name" : "MobilenetV2\/expanded_conv_5\/expand\/Relu6:0",
      "beta" : 0
    },
    {
      "pad_r" : 0,
      "fused_relu" : 1,
      "fused_tanh" : 0,
      "debug_info" : "MobilenetV2\/expanded_conv_5\/depthwise\/depthwise:0",
      "pad_fill_mode" : 0,
      "pad_b" : 0,
      "pad_l" : 0,
      "top" : "relu_MobilenetV2\/expanded_conv_5\/depthwise\/Relu6:0",
      "K" : 192,
      "blob_biases" : 137,
      "name" : "MobilenetV2\/expanded_conv_5\/depthwise\/depthwise:0",
      "has_batch_norm" : 0,
      "type" : "convolution",
      "n_groups" : 192,
      "pad_t" : 0,
      "has_biases" : 1,
      "C" : 192,
      "bottom" : "MobilenetV2\/expanded_conv_5\/expand\/Relu6:0",
      "weights" : {
        "W_U8" : 139,
        "per_ch_qscale" : 143,
        "per_ch_qbias" : 141
      },
      "Nx" : 3,
      "pad_mode" : 1,
      "pad_value" : 0,
      "Ny" : 3,
      "n_parallel" : 1
    },
    {
      "alpha" : -1,
      "bottom" : "relu_MobilenetV2\/expanded_conv_5\/depthwise\/Relu6:0",
      "weights" : {

      },
      "mode" : 6,
      "debug_info" : "relu_MobilenetV2\/expanded_conv_5\/depthwise\/Relu6:0_neg",
      "top" : "relu_MobilenetV2\/expanded_conv_5\/depthwise\/Relu6:0_neg",
      "type" : "activation",
      "name" : "relu_MobilenetV2\/expanded_conv_5\/depthwise\/Relu6:0_neg",
      "beta" : 0
    },
    {
      "bottom" : "relu_MobilenetV2\/expanded_conv_5\/depthwise\/Relu6:0_neg",
      "alpha" : -6,
      "operation" : 25,
      "weights" : {

      },
      "fused_relu" : 0,
      "debug_info" : "relu_MobilenetV2\/expanded_conv_5\/depthwise\/Relu6:0_clip",
      "top" : "relu_MobilenetV2\/expanded_conv_5\/depthwise\/Relu6:0_clip",
      "type" : "elementwise",
      "name" : "relu_MobilenetV2\/expanded_conv_5\/depthwise\/Relu6:0_clip",
      "beta" : 0
    },
    {
      "alpha" : -1,
      "bottom" : "relu_MobilenetV2\/expanded_conv_5\/depthwise\/Relu6:0_clip",
      "weights" : {

      },
      "mode" : 6,
      "debug_info" : "MobilenetV2\/expanded_conv_5\/depthwise\/Relu6:0",
      "top" : "MobilenetV2\/expanded_conv_5\/depthwise\/Relu6:0",
      "type" : "activation",
      "name" : "MobilenetV2\/expanded_conv_5\/depthwise\/Relu6:0",
      "beta" : 0
    },
    {
      "pad_r" : 0,
      "fused_relu" : 0,
      "fused_tanh" : 0,
      "debug_info" : "MobilenetV2\/expanded_conv_5\/project\/Conv2D:0",
      "pad_fill_mode" : 0,
      "pad_b" : 0,
      "pad_l" : 0,
      "top" : "MobilenetV2\/expanded_conv_5\/project\/BatchNorm\/FusedBatchNorm:0",
      "K" : 192,
      "blob_biases" : 145,
      "name" : "MobilenetV2\/expanded_conv_5\/project\/Conv2D:0",
      "has_batch_norm" : 0,
      "type" : "convolution",
      "n_groups" : 1,
      "pad_t" : 0,
      "has_biases" : 1,
      "C" : 32,
      "bottom" : "MobilenetV2\/expanded_conv_5\/depthwise\/Relu6:0",
      "weights" : {
        "W_U8" : 147,
        "per_ch_qscale" : 151,
        "per_ch_qbias" : 149
      },
      "Nx" : 1,
      "pad_mode" : 1,
      "pad_value" : 0,
      "Ny" : 1,
      "n_parallel" : 1
    },
    {
      "bottom" : "MobilenetV2\/expanded_conv_5\/project\/BatchNorm\/FusedBatchNorm:0,MobilenetV2\/expanded_conv_4\/add:0",
      "alpha" : 1,
      "operation" : 0,
      "weights" : {

      },
      "fused_relu" : 0,
      "debug_info" : "MobilenetV2\/expanded_conv_5\/add:0",
      "top" : "MobilenetV2\/expanded_conv_5\/add:0",
      "type" : "elementwise",
      "name" : "MobilenetV2\/expanded_conv_5\/add:0",
      "beta" : 0
    },
    {
      "pad_r" : 0,
      "fused_relu" : 1,
      "fused_tanh" : 0,
      "debug_info" : "MobilenetV2\/expanded_conv_6\/expand\/Conv2D:0",
      "pad_fill_mode" : 0,
      "pad_b" : 0,
      "pad_l" : 0,
      "top" : "relu_MobilenetV2\/expanded_conv_6\/expand\/Relu6:0",
      "K" : 32,
      "blob_biases" : 153,
      "name" : "MobilenetV2\/expanded_conv_6\/expand\/Conv2D:0",
      "has_batch_norm" : 0,
      "type" : "convolution",
      "n_groups" : 1,
      "pad_t" : 0,
      "has_biases" : 1,
      "C" : 192,
      "bottom" : "MobilenetV2\/expanded_conv_5\/add:0",
      "weights" : {
        "W_U8" : 155,
        "per_ch_qscale" : 159,
        "per_ch_qbias" : 157
      },
      "Nx" : 1,
      "pad_mode" : 1,
      "pad_value" : 0,
      "Ny" : 1,
      "n_parallel" : 1
    },
    {
      "alpha" : -1,
      "bottom" : "relu_MobilenetV2\/expanded_conv_6\/expand\/Relu6:0",
      "weights" : {

      },
      "mode" : 6,
      "debug_info" : "relu_MobilenetV2\/expanded_conv_6\/expand\/Relu6:0_neg",
      "top" : "relu_MobilenetV2\/expanded_conv_6\/expand\/Relu6:0_neg",
      "type" : "activation",
      "name" : "relu_MobilenetV2\/expanded_conv_6\/expand\/Relu6:0_neg",
      "beta" : 0
    },
    {
      "bottom" : "relu_MobilenetV2\/expanded_conv_6\/expand\/Relu6:0_neg",
      "alpha" : -6,
      "operation" : 25,
      "weights" : {

      },
      "fused_relu" : 0,
      "debug_info" : "relu_MobilenetV2\/expanded_conv_6\/expand\/Relu6:0_clip",
      "top" : "relu_MobilenetV2\/expanded_conv_6\/expand\/Relu6:0_clip",
      "type" : "elementwise",
      "name" : "relu_MobilenetV2\/expanded_conv_6\/expand\/Relu6:0_clip",
      "beta" : 0
    },
    {
      "alpha" : -1,
      "bottom" : "relu_MobilenetV2\/expanded_conv_6\/expand\/Relu6:0_clip",
      "weights" : {

      },
      "mode" : 6,
      "debug_info" : "MobilenetV2\/expanded_conv_6\/expand\/Relu6:0",
      "top" : "MobilenetV2\/expanded_conv_6\/expand\/Relu6:0",
      "type" : "activation",
      "name" : "MobilenetV2\/expanded_conv_6\/expand\/Relu6:0",
      "beta" : 0
    },
    {
      "pad_r" : 0,
      "fused_relu" : 1,
      "fused_tanh" : 0,
      "debug_info" : "MobilenetV2\/expanded_conv_6\/depthwise\/depthwise:0",
      "pad_fill_mode" : 0,
      "pad_b" : 0,
      "pad_l" : 0,
      "top" : "relu_MobilenetV2\/expanded_conv_6\/depthwise\/Relu6:0",
      "K" : 192,
      "blob_biases" : 161,
      "stride_x" : 2,
      "name" : "MobilenetV2\/expanded_conv_6\/depthwise\/depthwise:0",
      "has_batch_norm" : 0,
      "type" : "convolution",
      "n_groups" : 192,
      "pad_t" : 0,
      "stride_y" : 2,
      "has_biases" : 1,
      "C" : 192,
      "bottom" : "MobilenetV2\/expanded_conv_6\/expand\/Relu6:0",
      "weights" : {
        "W_U8" : 163,
        "per_ch_qscale" : 167,
        "per_ch_qbias" : 165
      },
      "Nx" : 3,
      "pad_mode" : 1,
      "pad_value" : 0,
      "Ny" : 3,
      "n_parallel" : 1
    },
    {
      "alpha" : -1,
      "bottom" : "relu_MobilenetV2\/expanded_conv_6\/depthwise\/Relu6:0",
      "weights" : {

      },
      "mode" : 6,
      "debug_info" : "relu_MobilenetV2\/expanded_conv_6\/depthwise\/Relu6:0_neg",
      "top" : "relu_MobilenetV2\/expanded_conv_6\/depthwise\/Relu6:0_neg",
      "type" : "activation",
      "name" : "relu_MobilenetV2\/expanded_conv_6\/depthwise\/Relu6:0_neg",
      "beta" : 0
    },
    {
      "bottom" : "relu_MobilenetV2\/expanded_conv_6\/depthwise\/Relu6:0_neg",
      "alpha" : -6,
      "operation" : 25,
      "weights" : {

      },
      "fused_relu" : 0,
      "debug_info" : "relu_MobilenetV2\/expanded_conv_6\/depthwise\/Relu6:0_clip",
      "top" : "relu_MobilenetV2\/expanded_conv_6\/depthwise\/Relu6:0_clip",
      "type" : "elementwise",
      "name" : "relu_MobilenetV2\/expanded_conv_6\/depthwise\/Relu6:0_clip",
      "beta" : 0
    },
    {
      "alpha" : -1,
      "bottom" : "relu_MobilenetV2\/expanded_conv_6\/depthwise\/Relu6:0_clip",
      "weights" : {

      },
      "mode" : 6,
      "debug_info" : "MobilenetV2\/expanded_conv_6\/depthwise\/Relu6:0",
      "top" : "MobilenetV2\/expanded_conv_6\/depthwise\/Relu6:0",
      "type" : "activation",
      "name" : "MobilenetV2\/expanded_conv_6\/depthwise\/Relu6:0",
      "beta" : 0
    },
    {
      "pad_r" : 0,
      "fused_relu" : 0,
      "fused_tanh" : 0,
      "debug_info" : "MobilenetV2\/expanded_conv_6\/project\/Conv2D:0",
      "pad_fill_mode" : 0,
      "pad_b" : 0,
      "pad_l" : 0,
      "top" : "MobilenetV2\/expanded_conv_6\/project\/BatchNorm\/FusedBatchNorm:0",
      "K" : 192,
      "blob_biases" : 169,
      "name" : "MobilenetV2\/expanded_conv_6\/project\/Conv2D:0",
      "has_batch_norm" : 0,
      "type" : "convolution",
      "n_groups" : 1,
      "pad_t" : 0,
      "has_biases" : 1,
      "C" : 64,
      "bottom" : "MobilenetV2\/expanded_conv_6\/depthwise\/Relu6:0",
      "weights" : {
        "W_U8" : 171,
        "per_ch_qscale" : 175,
        "per_ch_qbias" : 173
      },
      "Nx" : 1,
      "pad_mode" : 1,
      "pad_value" : 0,
      "Ny" : 1,
      "n_parallel" : 1
    },
    {
      "pad_r" : 0,
      "fused_relu" : 1,
      "fused_tanh" : 0,
      "debug_info" : "MobilenetV2\/expanded_conv_7\/expand\/Conv2D:0",
      "pad_fill_mode" : 0,
      "pad_b" : 0,
      "pad_l" : 0,
      "top" : "relu_MobilenetV2\/expanded_conv_7\/expand\/Relu6:0",
      "K" : 64,
      "blob_biases" : 177,
      "name" : "MobilenetV2\/expanded_conv_7\/expand\/Conv2D:0",
      "has_batch_norm" : 0,
      "type" : "convolution",
      "n_groups" : 1,
      "pad_t" : 0,
      "has_biases" : 1,
      "C" : 384,
      "bottom" : "MobilenetV2\/expanded_conv_6\/project\/BatchNorm\/FusedBatchNorm:0",
      "weights" : {
        "W_U8" : 179,
        "per_ch_qscale" : 183,
        "per_ch_qbias" : 181
      },
      "Nx" : 1,
      "pad_mode" : 1,
      "pad_value" : 0,
      "Ny" : 1,
      "n_parallel" : 1
    },
    {
      "alpha" : -1,
      "bottom" : "relu_MobilenetV2\/expanded_conv_7\/expand\/Relu6:0",
      "weights" : {

      },
      "mode" : 6,
      "debug_info" : "relu_MobilenetV2\/expanded_conv_7\/expand\/Relu6:0_neg",
      "top" : "relu_MobilenetV2\/expanded_conv_7\/expand\/Relu6:0_neg",
      "type" : "activation",
      "name" : "relu_MobilenetV2\/expanded_conv_7\/expand\/Relu6:0_neg",
      "beta" : 0
    },
    {
      "bottom" : "relu_MobilenetV2\/expanded_conv_7\/expand\/Relu6:0_neg",
      "alpha" : -6,
      "operation" : 25,
      "weights" : {

      },
      "fused_relu" : 0,
      "debug_info" : "relu_MobilenetV2\/expanded_conv_7\/expand\/Relu6:0_clip",
      "top" : "relu_MobilenetV2\/expanded_conv_7\/expand\/Relu6:0_clip",
      "type" : "elementwise",
      "name" : "relu_MobilenetV2\/expanded_conv_7\/expand\/Relu6:0_clip",
      "beta" : 0
    },
    {
      "alpha" : -1,
      "bottom" : "relu_MobilenetV2\/expanded_conv_7\/expand\/Relu6:0_clip",
      "weights" : {

      },
      "mode" : 6,
      "debug_info" : "MobilenetV2\/expanded_conv_7\/expand\/Relu6:0",
      "top" : "MobilenetV2\/expanded_conv_7\/expand\/Relu6:0",
      "type" : "activation",
      "name" : "MobilenetV2\/expanded_conv_7\/expand\/Relu6:0",
      "beta" : 0
    },
    {
      "pad_r" : 0,
      "fused_relu" : 1,
      "fused_tanh" : 0,
      "debug_info" : "MobilenetV2\/expanded_conv_7\/depthwise\/depthwise:0",
      "pad_fill_mode" : 0,
      "pad_b" : 0,
      "pad_l" : 0,
      "top" : "relu_MobilenetV2\/expanded_conv_7\/depthwise\/Relu6:0",
      "K" : 384,
      "blob_biases" : 185,
      "name" : "MobilenetV2\/expanded_conv_7\/depthwise\/depthwise:0",
      "has_batch_norm" : 0,
      "type" : "convolution",
      "n_groups" : 384,
      "pad_t" : 0,
      "has_biases" : 1,
      "C" : 384,
      "bottom" : "MobilenetV2\/expanded_conv_7\/expand\/Relu6:0",
      "weights" : {
        "W_U8" : 187,
        "per_ch_qscale" : 191,
        "per_ch_qbias" : 189
      },
      "Nx" : 3,
      "pad_mode" : 1,
      "pad_value" : 0,
      "Ny" : 3,
      "n_parallel" : 1
    },
    {
      "alpha" : -1,
      "bottom" : "relu_MobilenetV2\/expanded_conv_7\/depthwise\/Relu6:0",
      "weights" : {

      },
      "mode" : 6,
      "debug_info" : "relu_MobilenetV2\/expanded_conv_7\/depthwise\/Relu6:0_neg",
      "top" : "relu_MobilenetV2\/expanded_conv_7\/depthwise\/Relu6:0_neg",
      "type" : "activation",
      "name" : "relu_MobilenetV2\/expanded_conv_7\/depthwise\/Relu6:0_neg",
      "beta" : 0
    },
    {
      "bottom" : "relu_MobilenetV2\/expanded_conv_7\/depthwise\/Relu6:0_neg",
      "alpha" : -6,
      "operation" : 25,
      "weights" : {

      },
      "fused_relu" : 0,
      "debug_info" : "relu_MobilenetV2\/expanded_conv_7\/depthwise\/Relu6:0_clip",
      "top" : "relu_MobilenetV2\/expanded_conv_7\/depthwise\/Relu6:0_clip",
      "type" : "elementwise",
      "name" : "relu_MobilenetV2\/expanded_conv_7\/depthwise\/Relu6:0_clip",
      "beta" : 0
    },
    {
      "alpha" : -1,
      "bottom" : "relu_MobilenetV2\/expanded_conv_7\/depthwise\/Relu6:0_clip",
      "weights" : {

      },
      "mode" : 6,
      "debug_info" : "MobilenetV2\/expanded_conv_7\/depthwise\/Relu6:0",
      "top" : "MobilenetV2\/expanded_conv_7\/depthwise\/Relu6:0",
      "type" : "activation",
      "name" : "MobilenetV2\/expanded_conv_7\/depthwise\/Relu6:0",
      "beta" : 0
    },
    {
      "pad_r" : 0,
      "fused_relu" : 0,
      "fused_tanh" : 0,
      "debug_info" : "MobilenetV2\/expanded_conv_7\/project\/Conv2D:0",
      "pad_fill_mode" : 0,
      "pad_b" : 0,
      "pad_l" : 0,
      "top" : "MobilenetV2\/expanded_conv_7\/project\/BatchNorm\/FusedBatchNorm:0",
      "K" : 384,
      "blob_biases" : 193,
      "name" : "MobilenetV2\/expanded_conv_7\/project\/Conv2D:0",
      "has_batch_norm" : 0,
      "type" : "convolution",
      "n_groups" : 1,
      "pad_t" : 0,
      "has_biases" : 1,
      "C" : 64,
      "bottom" : "MobilenetV2\/expanded_conv_7\/depthwise\/Relu6:0",
      "weights" : {
        "W_U8" : 195,
        "per_ch_qscale" : 199,
        "per_ch_qbias" : 197
      },
      "Nx" : 1,
      "pad_mode" : 1,
      "pad_value" : 0,
      "Ny" : 1,
      "n_parallel" : 1
    },
    {
      "bottom" : "MobilenetV2\/expanded_conv_7\/project\/BatchNorm\/FusedBatchNorm:0,MobilenetV2\/expanded_conv_6\/project\/BatchNorm\/FusedBatchNorm:0",
      "alpha" : 1,
      "operation" : 0,
      "weights" : {

      },
      "fused_relu" : 0,
      "debug_info" : "MobilenetV2\/expanded_conv_7\/add:0",
      "top" : "MobilenetV2\/expanded_conv_7\/add:0",
      "type" : "elementwise",
      "name" : "MobilenetV2\/expanded_conv_7\/add:0",
      "beta" : 0
    },
    {
      "pad_r" : 0,
      "fused_relu" : 1,
      "fused_tanh" : 0,
      "debug_info" : "MobilenetV2\/expanded_conv_8\/expand\/Conv2D:0",
      "pad_fill_mode" : 0,
      "pad_b" : 0,
      "pad_l" : 0,
      "top" : "relu_MobilenetV2\/expanded_conv_8\/expand\/Relu6:0",
      "K" : 64,
      "blob_biases" : 201,
      "name" : "MobilenetV2\/expanded_conv_8\/expand\/Conv2D:0",
      "has_batch_norm" : 0,
      "type" : "convolution",
      "n_groups" : 1,
      "pad_t" : 0,
      "has_biases" : 1,
      "C" : 384,
      "bottom" : "MobilenetV2\/expanded_conv_7\/add:0",
      "weights" : {
        "W_U8" : 203,
        "per_ch_qscale" : 207,
        "per_ch_qbias" : 205
      },
      "Nx" : 1,
      "pad_mode" : 1,
      "pad_value" : 0,
      "Ny" : 1,
      "n_parallel" : 1
    },
    {
      "alpha" : -1,
      "bottom" : "relu_MobilenetV2\/expanded_conv_8\/expand\/Relu6:0",
      "weights" : {

      },
      "mode" : 6,
      "debug_info" : "relu_MobilenetV2\/expanded_conv_8\/expand\/Relu6:0_neg",
      "top" : "relu_MobilenetV2\/expanded_conv_8\/expand\/Relu6:0_neg",
      "type" : "activation",
      "name" : "relu_MobilenetV2\/expanded_conv_8\/expand\/Relu6:0_neg",
      "beta" : 0
    },
    {
      "bottom" : "relu_MobilenetV2\/expanded_conv_8\/expand\/Relu6:0_neg",
      "alpha" : -6,
      "operation" : 25,
      "weights" : {

      },
      "fused_relu" : 0,
      "debug_info" : "relu_MobilenetV2\/expanded_conv_8\/expand\/Relu6:0_clip",
      "top" : "relu_MobilenetV2\/expanded_conv_8\/expand\/Relu6:0_clip",
      "type" : "elementwise",
      "name" : "relu_MobilenetV2\/expanded_conv_8\/expand\/Relu6:0_clip",
      "beta" : 0
    },
    {
      "alpha" : -1,
      "bottom" : "relu_MobilenetV2\/expanded_conv_8\/expand\/Relu6:0_clip",
      "weights" : {

      },
      "mode" : 6,
      "debug_info" : "MobilenetV2\/expanded_conv_8\/expand\/Relu6:0",
      "top" : "MobilenetV2\/expanded_conv_8\/expand\/Relu6:0",
      "type" : "activation",
      "name" : "MobilenetV2\/expanded_conv_8\/expand\/Relu6:0",
      "beta" : 0
    },
    {
      "pad_r" : 0,
      "fused_relu" : 1,
      "fused_tanh" : 0,
      "debug_info" : "MobilenetV2\/expanded_conv_8\/depthwise\/depthwise:0",
      "pad_fill_mode" : 0,
      "pad_b" : 0,
      "pad_l" : 0,
      "top" : "relu_MobilenetV2\/expanded_conv_8\/depthwise\/Relu6:0",
      "K" : 384,
      "blob_biases" : 209,
      "name" : "MobilenetV2\/expanded_conv_8\/depthwise\/depthwise:0",
      "has_batch_norm" : 0,
      "type" : "convolution",
      "n_groups" : 384,
      "pad_t" : 0,
      "has_biases" : 1,
      "C" : 384,
      "bottom" : "MobilenetV2\/expanded_conv_8\/expand\/Relu6:0",
      "weights" : {
        "W_U8" : 211,
        "per_ch_qscale" : 215,
        "per_ch_qbias" : 213
      },
      "Nx" : 3,
      "pad_mode" : 1,
      "pad_value" : 0,
      "Ny" : 3,
      "n_parallel" : 1
    },
    {
      "alpha" : -1,
      "bottom" : "relu_MobilenetV2\/expanded_conv_8\/depthwise\/Relu6:0",
      "weights" : {

      },
      "mode" : 6,
      "debug_info" : "relu_MobilenetV2\/expanded_conv_8\/depthwise\/Relu6:0_neg",
      "top" : "relu_MobilenetV2\/expanded_conv_8\/depthwise\/Relu6:0_neg",
      "type" : "activation",
      "name" : "relu_MobilenetV2\/expanded_conv_8\/depthwise\/Relu6:0_neg",
      "beta" : 0
    },
    {
      "bottom" : "relu_MobilenetV2\/expanded_conv_8\/depthwise\/Relu6:0_neg",
      "alpha" : -6,
      "operation" : 25,
      "weights" : {

      },
      "fused_relu" : 0,
      "debug_info" : "relu_MobilenetV2\/expanded_conv_8\/depthwise\/Relu6:0_clip",
      "top" : "relu_MobilenetV2\/expanded_conv_8\/depthwise\/Relu6:0_clip",
      "type" : "elementwise",
      "name" : "relu_MobilenetV2\/expanded_conv_8\/depthwise\/Relu6:0_clip",
      "beta" : 0
    },
    {
      "alpha" : -1,
      "bottom" : "relu_MobilenetV2\/expanded_conv_8\/depthwise\/Relu6:0_clip",
      "weights" : {

      },
      "mode" : 6,
      "debug_info" : "MobilenetV2\/expanded_conv_8\/depthwise\/Relu6:0",
      "top" : "MobilenetV2\/expanded_conv_8\/depthwise\/Relu6:0",
      "type" : "activation",
      "name" : "MobilenetV2\/expanded_conv_8\/depthwise\/Relu6:0",
      "beta" : 0
    },
    {
      "pad_r" : 0,
      "fused_relu" : 0,
      "fused_tanh" : 0,
      "debug_info" : "MobilenetV2\/expanded_conv_8\/project\/Conv2D:0",
      "pad_fill_mode" : 0,
      "pad_b" : 0,
      "pad_l" : 0,
      "top" : "MobilenetV2\/expanded_conv_8\/project\/BatchNorm\/FusedBatchNorm:0",
      "K" : 384,
      "blob_biases" : 217,
      "name" : "MobilenetV2\/expanded_conv_8\/project\/Conv2D:0",
      "has_batch_norm" : 0,
      "type" : "convolution",
      "n_groups" : 1,
      "pad_t" : 0,
      "has_biases" : 1,
      "C" : 64,
      "bottom" : "MobilenetV2\/expanded_conv_8\/depthwise\/Relu6:0",
      "weights" : {
        "W_U8" : 219,
        "per_ch_qscale" : 223,
        "per_ch_qbias" : 221
      },
      "Nx" : 1,
      "pad_mode" : 1,
      "pad_value" : 0,
      "Ny" : 1,
      "n_parallel" : 1
    },
    {
      "bottom" : "MobilenetV2\/expanded_conv_8\/project\/BatchNorm\/FusedBatchNorm:0,MobilenetV2\/expanded_conv_7\/add:0",
      "alpha" : 1,
      "operation" : 0,
      "weights" : {

      },
      "fused_relu" : 0,
      "debug_info" : "MobilenetV2\/expanded_conv_8\/add:0",
      "top" : "MobilenetV2\/expanded_conv_8\/add:0",
      "type" : "elementwise",
      "name" : "MobilenetV2\/expanded_conv_8\/add:0",
      "beta" : 0
    },
    {
      "pad_r" : 0,
      "fused_relu" : 1,
      "fused_tanh" : 0,
      "debug_info" : "MobilenetV2\/expanded_conv_9\/expand\/Conv2D:0",
      "pad_fill_mode" : 0,
      "pad_b" : 0,
      "pad_l" : 0,
      "top" : "relu_MobilenetV2\/expanded_conv_9\/expand\/Relu6:0",
      "K" : 64,
      "blob_biases" : 225,
      "name" : "MobilenetV2\/expanded_conv_9\/expand\/Conv2D:0",
      "has_batch_norm" : 0,
      "type" : "convolution",
      "n_groups" : 1,
      "pad_t" : 0,
      "has_biases" : 1,
      "C" : 384,
      "bottom" : "MobilenetV2\/expanded_conv_8\/add:0",
      "weights" : {
        "W_U8" : 227,
        "per_ch_qscale" : 231,
        "per_ch_qbias" : 229
      },
      "Nx" : 1,
      "pad_mode" : 1,
      "pad_value" : 0,
      "Ny" : 1,
      "n_parallel" : 1
    },
    {
      "alpha" : -1,
      "bottom" : "relu_MobilenetV2\/expanded_conv_9\/expand\/Relu6:0",
      "weights" : {

      },
      "mode" : 6,
      "debug_info" : "relu_MobilenetV2\/expanded_conv_9\/expand\/Relu6:0_neg",
      "top" : "relu_MobilenetV2\/expanded_conv_9\/expand\/Relu6:0_neg",
      "type" : "activation",
      "name" : "relu_MobilenetV2\/expanded_conv_9\/expand\/Relu6:0_neg",
      "beta" : 0
    },
    {
      "bottom" : "relu_MobilenetV2\/expanded_conv_9\/expand\/Relu6:0_neg",
      "alpha" : -6,
      "operation" : 25,
      "weights" : {

      },
      "fused_relu" : 0,
      "debug_info" : "relu_MobilenetV2\/expanded_conv_9\/expand\/Relu6:0_clip",
      "top" : "relu_MobilenetV2\/expanded_conv_9\/expand\/Relu6:0_clip",
      "type" : "elementwise",
      "name" : "relu_MobilenetV2\/expanded_conv_9\/expand\/Relu6:0_clip",
      "beta" : 0
    },
    {
      "alpha" : -1,
      "bottom" : "relu_MobilenetV2\/expanded_conv_9\/expand\/Relu6:0_clip",
      "weights" : {

      },
      "mode" : 6,
      "debug_info" : "MobilenetV2\/expanded_conv_9\/expand\/Relu6:0",
      "top" : "MobilenetV2\/expanded_conv_9\/expand\/Relu6:0",
      "type" : "activation",
      "name" : "MobilenetV2\/expanded_conv_9\/expand\/Relu6:0",
      "beta" : 0
    },
    {
      "pad_r" : 0,
      "fused_relu" : 1,
      "fused_tanh" : 0,
      "debug_info" : "MobilenetV2\/expanded_conv_9\/depthwise\/depthwise:0",
      "pad_fill_mode" : 0,
      "pad_b" : 0,
      "pad_l" : 0,
      "top" : "relu_MobilenetV2\/expanded_conv_9\/depthwise\/Relu6:0",
      "K" : 384,
      "blob_biases" : 233,
      "name" : "MobilenetV2\/expanded_conv_9\/depthwise\/depthwise:0",
      "has_batch_norm" : 0,
      "type" : "convolution",
      "n_groups" : 384,
      "pad_t" : 0,
      "has_biases" : 1,
      "C" : 384,
      "bottom" : "MobilenetV2\/expanded_conv_9\/expand\/Relu6:0",
      "weights" : {
        "W_U8" : 235,
        "per_ch_qscale" : 239,
        "per_ch_qbias" : 237
      },
      "Nx" : 3,
      "pad_mode" : 1,
      "pad_value" : 0,
      "Ny" : 3,
      "n_parallel" : 1
    },
    {
      "alpha" : -1,
      "bottom" : "relu_MobilenetV2\/expanded_conv_9\/depthwise\/Relu6:0",
      "weights" : {

      },
      "mode" : 6,
      "debug_info" : "relu_MobilenetV2\/expanded_conv_9\/depthwise\/Relu6:0_neg",
      "top" : "relu_MobilenetV2\/expanded_conv_9\/depthwise\/Relu6:0_neg",
      "type" : "activation",
      "name" : "relu_MobilenetV2\/expanded_conv_9\/depthwise\/Relu6:0_neg",
      "beta" : 0
    },
    {
      "bottom" : "relu_MobilenetV2\/expanded_conv_9\/depthwise\/Relu6:0_neg",
      "alpha" : -6,
      "operation" : 25,
      "weights" : {

      },
      "fused_relu" : 0,
      "debug_info" : "relu_MobilenetV2\/expanded_conv_9\/depthwise\/Relu6:0_clip",
      "top" : "relu_MobilenetV2\/expanded_conv_9\/depthwise\/Relu6:0_clip",
      "type" : "elementwise",
      "name" : "relu_MobilenetV2\/expanded_conv_9\/depthwise\/Relu6:0_clip",
      "beta" : 0
    },
    {
      "alpha" : -1,
      "bottom" : "relu_MobilenetV2\/expanded_conv_9\/depthwise\/Relu6:0_clip",
      "weights" : {

      },
      "mode" : 6,
      "debug_info" : "MobilenetV2\/expanded_conv_9\/depthwise\/Relu6:0",
      "top" : "MobilenetV2\/expanded_conv_9\/depthwise\/Relu6:0",
      "type" : "activation",
      "name" : "MobilenetV2\/expanded_conv_9\/depthwise\/Relu6:0",
      "beta" : 0
    },
    {
      "pad_r" : 0,
      "fused_relu" : 0,
      "fused_tanh" : 0,
      "debug_info" : "MobilenetV2\/expanded_conv_9\/project\/Conv2D:0",
      "pad_fill_mode" : 0,
      "pad_b" : 0,
      "pad_l" : 0,
      "top" : "MobilenetV2\/expanded_conv_9\/project\/BatchNorm\/FusedBatchNorm:0",
      "K" : 384,
      "blob_biases" : 241,
      "name" : "MobilenetV2\/expanded_conv_9\/project\/Conv2D:0",
      "has_batch_norm" : 0,
      "type" : "convolution",
      "n_groups" : 1,
      "pad_t" : 0,
      "has_biases" : 1,
      "C" : 64,
      "bottom" : "MobilenetV2\/expanded_conv_9\/depthwise\/Relu6:0",
      "weights" : {
        "W_U8" : 243,
        "per_ch_qscale" : 247,
        "per_ch_qbias" : 245
      },
      "Nx" : 1,
      "pad_mode" : 1,
      "pad_value" : 0,
      "Ny" : 1,
      "n_parallel" : 1
    },
    {
      "bottom" : "MobilenetV2\/expanded_conv_9\/project\/BatchNorm\/FusedBatchNorm:0,MobilenetV2\/expanded_conv_8\/add:0",
      "alpha" : 1,
      "operation" : 0,
      "weights" : {

      },
      "fused_relu" : 0,
      "debug_info" : "MobilenetV2\/expanded_conv_9\/add:0",
      "top" : "MobilenetV2\/expanded_conv_9\/add:0",
      "type" : "elementwise",
      "name" : "MobilenetV2\/expanded_conv_9\/add:0",
      "beta" : 0
    },
    {
      "pad_r" : 0,
      "fused_relu" : 1,
      "fused_tanh" : 0,
      "debug_info" : "MobilenetV2\/expanded_conv_10\/expand\/Conv2D:0",
      "pad_fill_mode" : 0,
      "pad_b" : 0,
      "pad_l" : 0,
      "top" : "relu_MobilenetV2\/expanded_conv_10\/expand\/Relu6:0",
      "K" : 64,
      "blob_biases" : 249,
      "name" : "MobilenetV2\/expanded_conv_10\/expand\/Conv2D:0",
      "has_batch_norm" : 0,
      "type" : "convolution",
      "n_groups" : 1,
      "pad_t" : 0,
      "has_biases" : 1,
      "C" : 384,
      "bottom" : "MobilenetV2\/expanded_conv_9\/add:0",
      "weights" : {
        "W_U8" : 251,
        "per_ch_qscale" : 255,
        "per_ch_qbias" : 253
      },
      "Nx" : 1,
      "pad_mode" : 1,
      "pad_value" : 0,
      "Ny" : 1,
      "n_parallel" : 1
    },
    {
      "alpha" : -1,
      "bottom" : "relu_MobilenetV2\/expanded_conv_10\/expand\/Relu6:0",
      "weights" : {

      },
      "mode" : 6,
      "debug_info" : "relu_MobilenetV2\/expanded_conv_10\/expand\/Relu6:0_neg",
      "top" : "relu_MobilenetV2\/expanded_conv_10\/expand\/Relu6:0_neg",
      "type" : "activation",
      "name" : "relu_MobilenetV2\/expanded_conv_10\/expand\/Relu6:0_neg",
      "beta" : 0
    },
    {
      "bottom" : "relu_MobilenetV2\/expanded_conv_10\/expand\/Relu6:0_neg",
      "alpha" : -6,
      "operation" : 25,
      "weights" : {

      },
      "fused_relu" : 0,
      "debug_info" : "relu_MobilenetV2\/expanded_conv_10\/expand\/Relu6:0_clip",
      "top" : "relu_MobilenetV2\/expanded_conv_10\/expand\/Relu6:0_clip",
      "type" : "elementwise",
      "name" : "relu_MobilenetV2\/expanded_conv_10\/expand\/Relu6:0_clip",
      "beta" : 0
    },
    {
      "alpha" : -1,
      "bottom" : "relu_MobilenetV2\/expanded_conv_10\/expand\/Relu6:0_clip",
      "weights" : {

      },
      "mode" : 6,
      "debug_info" : "MobilenetV2\/expanded_conv_10\/expand\/Relu6:0",
      "top" : "MobilenetV2\/expanded_conv_10\/expand\/Relu6:0",
      "type" : "activation",
      "name" : "MobilenetV2\/expanded_conv_10\/expand\/Relu6:0",
      "beta" : 0
    },
    {
      "pad_r" : 0,
      "fused_relu" : 1,
      "fused_tanh" : 0,
      "debug_info" : "MobilenetV2\/expanded_conv_10\/depthwise\/depthwise:0",
      "pad_fill_mode" : 0,
      "pad_b" : 0,
      "pad_l" : 0,
      "top" : "relu_MobilenetV2\/expanded_conv_10\/depthwise\/Relu6:0",
      "K" : 384,
      "blob_biases" : 257,
      "name" : "MobilenetV2\/expanded_conv_10\/depthwise\/depthwise:0",
      "has_batch_norm" : 0,
      "type" : "convolution",
      "n_groups" : 384,
      "pad_t" : 0,
      "has_biases" : 1,
      "C" : 384,
      "bottom" : "MobilenetV2\/expanded_conv_10\/expand\/Relu6:0",
      "weights" : {
        "W_U8" : 259,
        "per_ch_qscale" : 263,
        "per_ch_qbias" : 261
      },
      "Nx" : 3,
      "pad_mode" : 1,
      "pad_value" : 0,
      "Ny" : 3,
      "n_parallel" : 1
    },
    {
      "alpha" : -1,
      "bottom" : "relu_MobilenetV2\/expanded_conv_10\/depthwise\/Relu6:0",
      "weights" : {

      },
      "mode" : 6,
      "debug_info" : "relu_MobilenetV2\/expanded_conv_10\/depthwise\/Relu6:0_neg",
      "top" : "relu_MobilenetV2\/expanded_conv_10\/depthwise\/Relu6:0_neg",
      "type" : "activation",
      "name" : "relu_MobilenetV2\/expanded_conv_10\/depthwise\/Relu6:0_neg",
      "beta" : 0
    },
    {
      "bottom" : "relu_MobilenetV2\/expanded_conv_10\/depthwise\/Relu6:0_neg",
      "alpha" : -6,
      "operation" : 25,
      "weights" : {

      },
      "fused_relu" : 0,
      "debug_info" : "relu_MobilenetV2\/expanded_conv_10\/depthwise\/Relu6:0_clip",
      "top" : "relu_MobilenetV2\/expanded_conv_10\/depthwise\/Relu6:0_clip",
      "type" : "elementwise",
      "name" : "relu_MobilenetV2\/expanded_conv_10\/depthwise\/Relu6:0_clip",
      "beta" : 0
    },
    {
      "alpha" : -1,
      "bottom" : "relu_MobilenetV2\/expanded_conv_10\/depthwise\/Relu6:0_clip",
      "weights" : {

      },
      "mode" : 6,
      "debug_info" : "MobilenetV2\/expanded_conv_10\/depthwise\/Relu6:0",
      "top" : "MobilenetV2\/expanded_conv_10\/depthwise\/Relu6:0",
      "type" : "activation",
      "name" : "MobilenetV2\/expanded_conv_10\/depthwise\/Relu6:0",
      "beta" : 0
    },
    {
      "pad_r" : 0,
      "fused_relu" : 0,
      "fused_tanh" : 0,
      "debug_info" : "MobilenetV2\/expanded_conv_10\/project\/Conv2D:0",
      "pad_fill_mode" : 0,
      "pad_b" : 0,
      "pad_l" : 0,
      "top" : "MobilenetV2\/expanded_conv_10\/project\/BatchNorm\/FusedBatchNorm:0",
      "K" : 384,
      "blob_biases" : 265,
      "name" : "MobilenetV2\/expanded_conv_10\/project\/Conv2D:0",
      "has_batch_norm" : 0,
      "type" : "convolution",
      "n_groups" : 1,
      "pad_t" : 0,
      "has_biases" : 1,
      "C" : 96,
      "bottom" : "MobilenetV2\/expanded_conv_10\/depthwise\/Relu6:0",
      "weights" : {
        "W_U8" : 267,
        "per_ch_qscale" : 271,
        "per_ch_qbias" : 269
      },
      "Nx" : 1,
      "pad_mode" : 1,
      "pad_value" : 0,
      "Ny" : 1,
      "n_parallel" : 1
    },
    {
      "pad_r" : 0,
      "fused_relu" : 1,
      "fused_tanh" : 0,
      "debug_info" : "MobilenetV2\/expanded_conv_11\/expand\/Conv2D:0",
      "pad_fill_mode" : 0,
      "pad_b" : 0,
      "pad_l" : 0,
      "top" : "relu_MobilenetV2\/expanded_conv_11\/expand\/Relu6:0",
      "K" : 96,
      "blob_biases" : 273,
      "name" : "MobilenetV2\/expanded_conv_11\/expand\/Conv2D:0",
      "has_batch_norm" : 0,
      "type" : "convolution",
      "n_groups" : 1,
      "pad_t" : 0,
      "has_biases" : 1,
      "C" : 576,
      "bottom" : "MobilenetV2\/expanded_conv_10\/project\/BatchNorm\/FusedBatchNorm:0",
      "weights" : {
        "W_U8" : 275,
        "per_ch_qscale" : 279,
        "per_ch_qbias" : 277
      },
      "Nx" : 1,
      "pad_mode" : 1,
      "pad_value" : 0,
      "Ny" : 1,
      "n_parallel" : 1
    },
    {
      "alpha" : -1,
      "bottom" : "relu_MobilenetV2\/expanded_conv_11\/expand\/Relu6:0",
      "weights" : {

      },
      "mode" : 6,
      "debug_info" : "relu_MobilenetV2\/expanded_conv_11\/expand\/Relu6:0_neg",
      "top" : "relu_MobilenetV2\/expanded_conv_11\/expand\/Relu6:0_neg",
      "type" : "activation",
      "name" : "relu_MobilenetV2\/expanded_conv_11\/expand\/Relu6:0_neg",
      "beta" : 0
    },
    {
      "bottom" : "relu_MobilenetV2\/expanded_conv_11\/expand\/Relu6:0_neg",
      "alpha" : -6,
      "operation" : 25,
      "weights" : {

      },
      "fused_relu" : 0,
      "debug_info" : "relu_MobilenetV2\/expanded_conv_11\/expand\/Relu6:0_clip",
      "top" : "relu_MobilenetV2\/expanded_conv_11\/expand\/Relu6:0_clip",
      "type" : "elementwise",
      "name" : "relu_MobilenetV2\/expanded_conv_11\/expand\/Relu6:0_clip",
      "beta" : 0
    },
    {
      "alpha" : -1,
      "bottom" : "relu_MobilenetV2\/expanded_conv_11\/expand\/Relu6:0_clip",
      "weights" : {

      },
      "mode" : 6,
      "debug_info" : "MobilenetV2\/expanded_conv_11\/expand\/Relu6:0",
      "top" : "MobilenetV2\/expanded_conv_11\/expand\/Relu6:0",
      "type" : "activation",
      "name" : "MobilenetV2\/expanded_conv_11\/expand\/Relu6:0",
      "beta" : 0
    },
    {
      "pad_r" : 0,
      "fused_relu" : 1,
      "fused_tanh" : 0,
      "debug_info" : "MobilenetV2\/expanded_conv_11\/depthwise\/depthwise:0",
      "pad_fill_mode" : 0,
      "pad_b" : 0,
      "pad_l" : 0,
      "top" : "relu_MobilenetV2\/expanded_conv_11\/depthwise\/Relu6:0",
      "K" : 576,
      "blob_biases" : 281,
      "name" : "MobilenetV2\/expanded_conv_11\/depthwise\/depthwise:0",
      "has_batch_norm" : 0,
      "type" : "convolution",
      "n_groups" : 576,
      "pad_t" : 0,
      "has_biases" : 1,
      "C" : 576,
      "bottom" : "MobilenetV2\/expanded_conv_11\/expand\/Relu6:0",
      "weights" : {
        "W_U8" : 283,
        "per_ch_qscale" : 287,
        "per_ch_qbias" : 285
      },
      "Nx" : 3,
      "pad_mode" : 1,
      "pad_value" : 0,
      "Ny" : 3,
      "n_parallel" : 1
    },
    {
      "alpha" : -1,
      "bottom" : "relu_MobilenetV2\/expanded_conv_11\/depthwise\/Relu6:0",
      "weights" : {

      },
      "mode" : 6,
      "debug_info" : "relu_MobilenetV2\/expanded_conv_11\/depthwise\/Relu6:0_neg",
      "top" : "relu_MobilenetV2\/expanded_conv_11\/depthwise\/Relu6:0_neg",
      "type" : "activation",
      "name" : "relu_MobilenetV2\/expanded_conv_11\/depthwise\/Relu6:0_neg",
      "beta" : 0
    },
    {
      "bottom" : "relu_MobilenetV2\/expanded_conv_11\/depthwise\/Relu6:0_neg",
      "alpha" : -6,
      "operation" : 25,
      "weights" : {

      },
      "fused_relu" : 0,
      "debug_info" : "relu_MobilenetV2\/expanded_conv_11\/depthwise\/Relu6:0_clip",
      "top" : "relu_MobilenetV2\/expanded_conv_11\/depthwise\/Relu6:0_clip",
      "type" : "elementwise",
      "name" : "relu_MobilenetV2\/expanded_conv_11\/depthwise\/Relu6:0_clip",
      "beta" : 0
    },
    {
      "alpha" : -1,
      "bottom" : "relu_MobilenetV2\/expanded_conv_11\/depthwise\/Relu6:0_clip",
      "weights" : {

      },
      "mode" : 6,
      "debug_info" : "MobilenetV2\/expanded_conv_11\/depthwise\/Relu6:0",
      "top" : "MobilenetV2\/expanded_conv_11\/depthwise\/Relu6:0",
      "type" : "activation",
      "name" : "MobilenetV2\/expanded_conv_11\/depthwise\/Relu6:0",
      "beta" : 0
    },
    {
      "pad_r" : 0,
      "fused_relu" : 0,
      "fused_tanh" : 0,
      "debug_info" : "MobilenetV2\/expanded_conv_11\/project\/Conv2D:0",
      "pad_fill_mode" : 0,
      "pad_b" : 0,
      "pad_l" : 0,
      "top" : "MobilenetV2\/expanded_conv_11\/project\/BatchNorm\/FusedBatchNorm:0",
      "K" : 576,
      "blob_biases" : 289,
      "name" : "MobilenetV2\/expanded_conv_11\/project\/Conv2D:0",
      "has_batch_norm" : 0,
      "type" : "convolution",
      "n_groups" : 1,
      "pad_t" : 0,
      "has_biases" : 1,
      "C" : 96,
      "bottom" : "MobilenetV2\/expanded_conv_11\/depthwise\/Relu6:0",
      "weights" : {
        "W_U8" : 291,
        "per_ch_qscale" : 295,
        "per_ch_qbias" : 293
      },
      "Nx" : 1,
      "pad_mode" : 1,
      "pad_value" : 0,
      "Ny" : 1,
      "n_parallel" : 1
    },
    {
      "bottom" : "MobilenetV2\/expanded_conv_11\/project\/BatchNorm\/FusedBatchNorm:0,MobilenetV2\/expanded_conv_10\/project\/BatchNorm\/FusedBatchNorm:0",
      "alpha" : 1,
      "operation" : 0,
      "weights" : {

      },
      "fused_relu" : 0,
      "debug_info" : "MobilenetV2\/expanded_conv_11\/add:0",
      "top" : "MobilenetV2\/expanded_conv_11\/add:0",
      "type" : "elementwise",
      "name" : "MobilenetV2\/expanded_conv_11\/add:0",
      "beta" : 0
    },
    {
      "pad_r" : 0,
      "fused_relu" : 1,
      "fused_tanh" : 0,
      "debug_info" : "MobilenetV2\/expanded_conv_12\/expand\/Conv2D:0",
      "pad_fill_mode" : 0,
      "pad_b" : 0,
      "pad_l" : 0,
      "top" : "relu_MobilenetV2\/expanded_conv_12\/expand\/Relu6:0",
      "K" : 96,
      "blob_biases" : 297,
      "name" : "MobilenetV2\/expanded_conv_12\/expand\/Conv2D:0",
      "has_batch_norm" : 0,
      "type" : "convolution",
      "n_groups" : 1,
      "pad_t" : 0,
      "has_biases" : 1,
      "C" : 576,
      "bottom" : "MobilenetV2\/expanded_conv_11\/add:0",
      "weights" : {
        "W_U8" : 299,
        "per_ch_qscale" : 303,
        "per_ch_qbias" : 301
      },
      "Nx" : 1,
      "pad_mode" : 1,
      "pad_value" : 0,
      "Ny" : 1,
      "n_parallel" : 1
    },
    {
      "alpha" : -1,
      "bottom" : "relu_MobilenetV2\/expanded_conv_12\/expand\/Relu6:0",
      "weights" : {

      },
      "mode" : 6,
      "debug_info" : "relu_MobilenetV2\/expanded_conv_12\/expand\/Relu6:0_neg",
      "top" : "relu_MobilenetV2\/expanded_conv_12\/expand\/Relu6:0_neg",
      "type" : "activation",
      "name" : "relu_MobilenetV2\/expanded_conv_12\/expand\/Relu6:0_neg",
      "beta" : 0
    },
    {
      "bottom" : "relu_MobilenetV2\/expanded_conv_12\/expand\/Relu6:0_neg",
      "alpha" : -6,
      "operation" : 25,
      "weights" : {

      },
      "fused_relu" : 0,
      "debug_info" : "relu_MobilenetV2\/expanded_conv_12\/expand\/Relu6:0_clip",
      "top" : "relu_MobilenetV2\/expanded_conv_12\/expand\/Relu6:0_clip",
      "type" : "elementwise",
      "name" : "relu_MobilenetV2\/expanded_conv_12\/expand\/Relu6:0_clip",
      "beta" : 0
    },
    {
      "alpha" : -1,
      "bottom" : "relu_MobilenetV2\/expanded_conv_12\/expand\/Relu6:0_clip",
      "weights" : {

      },
      "mode" : 6,
      "debug_info" : "MobilenetV2\/expanded_conv_12\/expand\/Relu6:0",
      "top" : "MobilenetV2\/expanded_conv_12\/expand\/Relu6:0",
      "type" : "activation",
      "name" : "MobilenetV2\/expanded_conv_12\/expand\/Relu6:0",
      "beta" : 0
    },
    {
      "pad_r" : 0,
      "fused_relu" : 1,
      "fused_tanh" : 0,
      "debug_info" : "MobilenetV2\/expanded_conv_12\/depthwise\/depthwise:0",
      "pad_fill_mode" : 0,
      "pad_b" : 0,
      "pad_l" : 0,
      "top" : "relu_MobilenetV2\/expanded_conv_12\/depthwise\/Relu6:0",
      "K" : 576,
      "blob_biases" : 305,
      "name" : "MobilenetV2\/expanded_conv_12\/depthwise\/depthwise:0",
      "has_batch_norm" : 0,
      "type" : "convolution",
      "n_groups" : 576,
      "pad_t" : 0,
      "has_biases" : 1,
      "C" : 576,
      "bottom" : "MobilenetV2\/expanded_conv_12\/expand\/Relu6:0",
      "weights" : {
        "W_U8" : 307,
        "per_ch_qscale" : 311,
        "per_ch_qbias" : 309
      },
      "Nx" : 3,
      "pad_mode" : 1,
      "pad_value" : 0,
      "Ny" : 3,
      "n_parallel" : 1
    },
    {
      "alpha" : -1,
      "bottom" : "relu_MobilenetV2\/expanded_conv_12\/depthwise\/Relu6:0",
      "weights" : {

      },
      "mode" : 6,
      "debug_info" : "relu_MobilenetV2\/expanded_conv_12\/depthwise\/Relu6:0_neg",
      "top" : "relu_MobilenetV2\/expanded_conv_12\/depthwise\/Relu6:0_neg",
      "type" : "activation",
      "name" : "relu_MobilenetV2\/expanded_conv_12\/depthwise\/Relu6:0_neg",
      "beta" : 0
    },
    {
      "bottom" : "relu_MobilenetV2\/expanded_conv_12\/depthwise\/Relu6:0_neg",
      "alpha" : -6,
      "operation" : 25,
      "weights" : {

      },
      "fused_relu" : 0,
      "debug_info" : "relu_MobilenetV2\/expanded_conv_12\/depthwise\/Relu6:0_clip",
      "top" : "relu_MobilenetV2\/expanded_conv_12\/depthwise\/Relu6:0_clip",
      "type" : "elementwise",
      "name" : "relu_MobilenetV2\/expanded_conv_12\/depthwise\/Relu6:0_clip",
      "beta" : 0
    },
    {
      "alpha" : -1,
      "bottom" : "relu_MobilenetV2\/expanded_conv_12\/depthwise\/Relu6:0_clip",
      "weights" : {

      },
      "mode" : 6,
      "debug_info" : "MobilenetV2\/expanded_conv_12\/depthwise\/Relu6:0",
      "top" : "MobilenetV2\/expanded_conv_12\/depthwise\/Relu6:0",
      "type" : "activation",
      "name" : "MobilenetV2\/expanded_conv_12\/depthwise\/Relu6:0",
      "beta" : 0
    },
    {
      "pad_r" : 0,
      "fused_relu" : 0,
      "fused_tanh" : 0,
      "debug_info" : "MobilenetV2\/expanded_conv_12\/project\/Conv2D:0",
      "pad_fill_mode" : 0,
      "pad_b" : 0,
      "pad_l" : 0,
      "top" : "MobilenetV2\/expanded_conv_12\/project\/BatchNorm\/FusedBatchNorm:0",
      "K" : 576,
      "blob_biases" : 313,
      "name" : "MobilenetV2\/expanded_conv_12\/project\/Conv2D:0",
      "has_batch_norm" : 0,
      "type" : "convolution",
      "n_groups" : 1,
      "pad_t" : 0,
      "has_biases" : 1,
      "C" : 96,
      "bottom" : "MobilenetV2\/expanded_conv_12\/depthwise\/Relu6:0",
      "weights" : {
        "W_U8" : 315,
        "per_ch_qscale" : 319,
        "per_ch_qbias" : 317
      },
      "Nx" : 1,
      "pad_mode" : 1,
      "pad_value" : 0,
      "Ny" : 1,
      "n_parallel" : 1
    },
    {
      "bottom" : "MobilenetV2\/expanded_conv_12\/project\/BatchNorm\/FusedBatchNorm:0,MobilenetV2\/expanded_conv_11\/add:0",
      "alpha" : 1,
      "operation" : 0,
      "weights" : {

      },
      "fused_relu" : 0,
      "debug_info" : "MobilenetV2\/expanded_conv_12\/add:0",
      "top" : "MobilenetV2\/expanded_conv_12\/add:0",
      "type" : "elementwise",
      "name" : "MobilenetV2\/expanded_conv_12\/add:0",
      "beta" : 0
    },
    {
      "pad_r" : 0,
      "fused_relu" : 1,
      "fused_tanh" : 0,
      "debug_info" : "MobilenetV2\/expanded_conv_13\/expand\/Conv2D:0",
      "pad_fill_mode" : 0,
      "pad_b" : 0,
      "pad_l" : 0,
      "top" : "relu_MobilenetV2\/expanded_conv_13\/expand\/Relu6:0",
      "K" : 96,
      "blob_biases" : 321,
      "name" : "MobilenetV2\/expanded_conv_13\/expand\/Conv2D:0",
      "has_batch_norm" : 0,
      "type" : "convolution",
      "n_groups" : 1,
      "pad_t" : 0,
      "has_biases" : 1,
      "C" : 576,
      "bottom" : "MobilenetV2\/expanded_conv_12\/add:0",
      "weights" : {
        "W_U8" : 323,
        "per_ch_qscale" : 327,
        "per_ch_qbias" : 325
      },
      "Nx" : 1,
      "pad_mode" : 1,
      "pad_value" : 0,
      "Ny" : 1,
      "n_parallel" : 1
    },
    {
      "alpha" : -1,
      "bottom" : "relu_MobilenetV2\/expanded_conv_13\/expand\/Relu6:0",
      "weights" : {

      },
      "mode" : 6,
      "debug_info" : "relu_MobilenetV2\/expanded_conv_13\/expand\/Relu6:0_neg",
      "top" : "relu_MobilenetV2\/expanded_conv_13\/expand\/Relu6:0_neg",
      "type" : "activation",
      "name" : "relu_MobilenetV2\/expanded_conv_13\/expand\/Relu6:0_neg",
      "beta" : 0
    },
    {
      "bottom" : "relu_MobilenetV2\/expanded_conv_13\/expand\/Relu6:0_neg",
      "alpha" : -6,
      "operation" : 25,
      "weights" : {

      },
      "fused_relu" : 0,
      "debug_info" : "relu_MobilenetV2\/expanded_conv_13\/expand\/Relu6:0_clip",
      "top" : "relu_MobilenetV2\/expanded_conv_13\/expand\/Relu6:0_clip",
      "type" : "elementwise",
      "name" : "relu_MobilenetV2\/expanded_conv_13\/expand\/Relu6:0_clip",
      "beta" : 0
    },
    {
      "alpha" : -1,
      "bottom" : "relu_MobilenetV2\/expanded_conv_13\/expand\/Relu6:0_clip",
      "weights" : {

      },
      "mode" : 6,
      "debug_info" : "MobilenetV2\/expanded_conv_13\/expand\/Relu6:0",
      "top" : "MobilenetV2\/expanded_conv_13\/expand\/Relu6:0",
      "type" : "activation",
      "name" : "MobilenetV2\/expanded_conv_13\/expand\/Relu6:0",
      "beta" : 0
    },
    {
      "pad_r" : 0,
      "fused_relu" : 1,
      "fused_tanh" : 0,
      "debug_info" : "MobilenetV2\/expanded_conv_13\/depthwise\/depthwise:0",
      "pad_fill_mode" : 0,
      "pad_b" : 0,
      "pad_l" : 0,
      "top" : "relu_MobilenetV2\/expanded_conv_13\/depthwise\/Relu6:0",
      "K" : 576,
      "blob_biases" : 329,
      "stride_x" : 2,
      "name" : "MobilenetV2\/expanded_conv_13\/depthwise\/depthwise:0",
      "has_batch_norm" : 0,
      "type" : "convolution",
      "n_groups" : 576,
      "pad_t" : 0,
      "stride_y" : 2,
      "has_biases" : 1,
      "C" : 576,
      "bottom" : "MobilenetV2\/expanded_conv_13\/expand\/Relu6:0",
      "weights" : {
        "W_U8" : 331,
        "per_ch_qscale" : 335,
        "per_ch_qbias" : 333
      },
      "Nx" : 3,
      "pad_mode" : 1,
      "pad_value" : 0,
      "Ny" : 3,
      "n_parallel" : 1
    },
    {
      "alpha" : -1,
      "bottom" : "relu_MobilenetV2\/expanded_conv_13\/depthwise\/Relu6:0",
      "weights" : {

      },
      "mode" : 6,
      "debug_info" : "relu_MobilenetV2\/expanded_conv_13\/depthwise\/Relu6:0_neg",
      "top" : "relu_MobilenetV2\/expanded_conv_13\/depthwise\/Relu6:0_neg",
      "type" : "activation",
      "name" : "relu_MobilenetV2\/expanded_conv_13\/depthwise\/Relu6:0_neg",
      "beta" : 0
    },
    {
      "bottom" : "relu_MobilenetV2\/expanded_conv_13\/depthwise\/Relu6:0_neg",
      "alpha" : -6,
      "operation" : 25,
      "weights" : {

      },
      "fused_relu" : 0,
      "debug_info" : "relu_MobilenetV2\/expanded_conv_13\/depthwise\/Relu6:0_clip",
      "top" : "relu_MobilenetV2\/expanded_conv_13\/depthwise\/Relu6:0_clip",
      "type" : "elementwise",
      "name" : "relu_MobilenetV2\/expanded_conv_13\/depthwise\/Relu6:0_clip",
      "beta" : 0
    },
    {
      "alpha" : -1,
      "bottom" : "relu_MobilenetV2\/expanded_conv_13\/depthwise\/Relu6:0_clip",
      "weights" : {

      },
      "mode" : 6,
      "debug_info" : "MobilenetV2\/expanded_conv_13\/depthwise\/Relu6:0",
      "top" : "MobilenetV2\/expanded_conv_13\/depthwise\/Relu6:0",
      "type" : "activation",
      "name" : "MobilenetV2\/expanded_conv_13\/depthwise\/Relu6:0",
      "beta" : 0
    },
    {
      "pad_r" : 0,
      "fused_relu" : 0,
      "fused_tanh" : 0,
      "debug_info" : "MobilenetV2\/expanded_conv_13\/project\/Conv2D:0",
      "pad_fill_mode" : 0,
      "pad_b" : 0,
      "pad_l" : 0,
      "top" : "MobilenetV2\/expanded_conv_13\/project\/BatchNorm\/FusedBatchNorm:0",
      "K" : 576,
      "blob_biases" : 337,
      "name" : "MobilenetV2\/expanded_conv_13\/project\/Conv2D:0",
      "has_batch_norm" : 0,
      "type" : "convolution",
      "n_groups" : 1,
      "pad_t" : 0,
      "has_biases" : 1,
      "C" : 160,
      "bottom" : "MobilenetV2\/expanded_conv_13\/depthwise\/Relu6:0",
      "weights" : {
        "W_U8" : 339,
        "per_ch_qscale" : 343,
        "per_ch_qbias" : 341
      },
      "Nx" : 1,
      "pad_mode" : 1,
      "pad_value" : 0,
      "Ny" : 1,
      "n_parallel" : 1
    },
    {
      "pad_r" : 0,
      "fused_relu" : 1,
      "fused_tanh" : 0,
      "debug_info" : "MobilenetV2\/expanded_conv_14\/expand\/Conv2D:0",
      "pad_fill_mode" : 0,
      "pad_b" : 0,
      "pad_l" : 0,
      "top" : "relu_MobilenetV2\/expanded_conv_14\/expand\/Relu6:0",
      "K" : 160,
      "blob_biases" : 345,
      "name" : "MobilenetV2\/expanded_conv_14\/expand\/Conv2D:0",
      "has_batch_norm" : 0,
      "type" : "convolution",
      "n_groups" : 1,
      "pad_t" : 0,
      "has_biases" : 1,
      "C" : 960,
      "bottom" : "MobilenetV2\/expanded_conv_13\/project\/BatchNorm\/FusedBatchNorm:0",
      "weights" : {
        "W_U8" : 347,
        "per_ch_qscale" : 351,
        "per_ch_qbias" : 349
      },
      "Nx" : 1,
      "pad_mode" : 1,
      "pad_value" : 0,
      "Ny" : 1,
      "n_parallel" : 1
    },
    {
      "alpha" : -1,
      "bottom" : "relu_MobilenetV2\/expanded_conv_14\/expand\/Relu6:0",
      "weights" : {

      },
      "mode" : 6,
      "debug_info" : "relu_MobilenetV2\/expanded_conv_14\/expand\/Relu6:0_neg",
      "top" : "relu_MobilenetV2\/expanded_conv_14\/expand\/Relu6:0_neg",
      "type" : "activation",
      "name" : "relu_MobilenetV2\/expanded_conv_14\/expand\/Relu6:0_neg",
      "beta" : 0
    },
    {
      "bottom" : "relu_MobilenetV2\/expanded_conv_14\/expand\/Relu6:0_neg",
      "alpha" : -6,
      "operation" : 25,
      "weights" : {

      },
      "fused_relu" : 0,
      "debug_info" : "relu_MobilenetV2\/expanded_conv_14\/expand\/Relu6:0_clip",
      "top" : "relu_MobilenetV2\/expanded_conv_14\/expand\/Relu6:0_clip",
      "type" : "elementwise",
      "name" : "relu_MobilenetV2\/expanded_conv_14\/expand\/Relu6:0_clip",
      "beta" : 0
    },
    {
      "alpha" : -1,
      "bottom" : "relu_MobilenetV2\/expanded_conv_14\/expand\/Relu6:0_clip",
      "weights" : {

      },
      "mode" : 6,
      "debug_info" : "MobilenetV2\/expanded_conv_14\/expand\/Relu6:0",
      "top" : "MobilenetV2\/expanded_conv_14\/expand\/Relu6:0",
      "type" : "activation",
      "name" : "MobilenetV2\/expanded_conv_14\/expand\/Relu6:0",
      "beta" : 0
    },
    {
      "pad_r" : 0,
      "fused_relu" : 1,
      "fused_tanh" : 0,
      "debug_info" : "MobilenetV2\/expanded_conv_14\/depthwise\/depthwise:0",
      "pad_fill_mode" : 0,
      "pad_b" : 0,
      "pad_l" : 0,
      "top" : "relu_MobilenetV2\/expanded_conv_14\/depthwise\/Relu6:0",
      "K" : 960,
      "blob_biases" : 353,
      "name" : "MobilenetV2\/expanded_conv_14\/depthwise\/depthwise:0",
      "has_batch_norm" : 0,
      "type" : "convolution",
      "n_groups" : 960,
      "pad_t" : 0,
      "has_biases" : 1,
      "C" : 960,
      "bottom" : "MobilenetV2\/expanded_conv_14\/expand\/Relu6:0",
      "weights" : {
        "W_U8" : 355,
        "per_ch_qscale" : 359,
        "per_ch_qbias" : 357
      },
      "Nx" : 3,
      "pad_mode" : 1,
      "pad_value" : 0,
      "Ny" : 3,
      "n_parallel" : 1
    },
    {
      "alpha" : -1,
      "bottom" : "relu_MobilenetV2\/expanded_conv_14\/depthwise\/Relu6:0",
      "weights" : {

      },
      "mode" : 6,
      "debug_info" : "relu_MobilenetV2\/expanded_conv_14\/depthwise\/Relu6:0_neg",
      "top" : "relu_MobilenetV2\/expanded_conv_14\/depthwise\/Relu6:0_neg",
      "type" : "activation",
      "name" : "relu_MobilenetV2\/expanded_conv_14\/depthwise\/Relu6:0_neg",
      "beta" : 0
    },
    {
      "bottom" : "relu_MobilenetV2\/expanded_conv_14\/depthwise\/Relu6:0_neg",
      "alpha" : -6,
      "operation" : 25,
      "weights" : {

      },
      "fused_relu" : 0,
      "debug_info" : "relu_MobilenetV2\/expanded_conv_14\/depthwise\/Relu6:0_clip",
      "top" : "relu_MobilenetV2\/expanded_conv_14\/depthwise\/Relu6:0_clip",
      "type" : "elementwise",
      "name" : "relu_MobilenetV2\/expanded_conv_14\/depthwise\/Relu6:0_clip",
      "beta" : 0
    },
    {
      "alpha" : -1,
      "bottom" : "relu_MobilenetV2\/expanded_conv_14\/depthwise\/Relu6:0_clip",
      "weights" : {

      },
      "mode" : 6,
      "debug_info" : "MobilenetV2\/expanded_conv_14\/depthwise\/Relu6:0",
      "top" : "MobilenetV2\/expanded_conv_14\/depthwise\/Relu6:0",
      "type" : "activation",
      "name" : "MobilenetV2\/expanded_conv_14\/depthwise\/Relu6:0",
      "beta" : 0
    },
    {
      "pad_r" : 0,
      "fused_relu" : 0,
      "fused_tanh" : 0,
      "debug_info" : "MobilenetV2\/expanded_conv_14\/project\/Conv2D:0",
      "pad_fill_mode" : 0,
      "pad_b" : 0,
      "pad_l" : 0,
      "top" : "MobilenetV2\/expanded_conv_14\/project\/BatchNorm\/FusedBatchNorm:0",
      "K" : 960,
      "blob_biases" : 361,
      "name" : "MobilenetV2\/expanded_conv_14\/project\/Conv2D:0",
      "has_batch_norm" : 0,
      "type" : "convolution",
      "n_groups" : 1,
      "pad_t" : 0,
      "has_biases" : 1,
      "C" : 160,
      "bottom" : "MobilenetV2\/expanded_conv_14\/depthwise\/Relu6:0",
      "weights" : {
        "W_U8" : 363,
        "per_ch_qscale" : 367,
        "per_ch_qbias" : 365
      },
      "Nx" : 1,
      "pad_mode" : 1,
      "pad_value" : 0,
      "Ny" : 1,
      "n_parallel" : 1
    },
    {
      "bottom" : "MobilenetV2\/expanded_conv_14\/project\/BatchNorm\/FusedBatchNorm:0,MobilenetV2\/expanded_conv_13\/project\/BatchNorm\/FusedBatchNorm:0",
      "alpha" : 1,
      "operation" : 0,
      "weights" : {

      },
      "fused_relu" : 0,
      "debug_info" : "MobilenetV2\/expanded_conv_14\/add:0",
      "top" : "MobilenetV2\/expanded_conv_14\/add:0",
      "type" : "elementwise",
      "name" : "MobilenetV2\/expanded_conv_14\/add:0",
      "beta" : 0
    },
    {
      "pad_r" : 0,
      "fused_relu" : 1,
      "fused_tanh" : 0,
      "debug_info" : "MobilenetV2\/expanded_conv_15\/expand\/Conv2D:0",
      "pad_fill_mode" : 0,
      "pad_b" : 0,
      "pad_l" : 0,
      "top" : "relu_MobilenetV2\/expanded_conv_15\/expand\/Relu6:0",
      "K" : 160,
      "blob_biases" : 369,
      "name" : "MobilenetV2\/expanded_conv_15\/expand\/Conv2D:0",
      "has_batch_norm" : 0,
      "type" : "convolution",
      "n_groups" : 1,
      "pad_t" : 0,
      "has_biases" : 1,
      "C" : 960,
      "bottom" : "MobilenetV2\/expanded_conv_14\/add:0",
      "weights" : {
        "W_U8" : 371,
        "per_ch_qscale" : 375,
        "per_ch_qbias" : 373
      },
      "Nx" : 1,
      "pad_mode" : 1,
      "pad_value" : 0,
      "Ny" : 1,
      "n_parallel" : 1
    },
    {
      "alpha" : -1,
      "bottom" : "relu_MobilenetV2\/expanded_conv_15\/expand\/Relu6:0",
      "weights" : {

      },
      "mode" : 6,
      "debug_info" : "relu_MobilenetV2\/expanded_conv_15\/expand\/Relu6:0_neg",
      "top" : "relu_MobilenetV2\/expanded_conv_15\/expand\/Relu6:0_neg",
      "type" : "activation",
      "name" : "relu_MobilenetV2\/expanded_conv_15\/expand\/Relu6:0_neg",
      "beta" : 0
    },
    {
      "bottom" : "relu_MobilenetV2\/expanded_conv_15\/expand\/Relu6:0_neg",
      "alpha" : -6,
      "operation" : 25,
      "weights" : {

      },
      "fused_relu" : 0,
      "debug_info" : "relu_MobilenetV2\/expanded_conv_15\/expand\/Relu6:0_clip",
      "top" : "relu_MobilenetV2\/expanded_conv_15\/expand\/Relu6:0_clip",
      "type" : "elementwise",
      "name" : "relu_MobilenetV2\/expanded_conv_15\/expand\/Relu6:0_clip",
      "beta" : 0
    },
    {
      "alpha" : -1,
      "bottom" : "relu_MobilenetV2\/expanded_conv_15\/expand\/Relu6:0_clip",
      "weights" : {

      },
      "mode" : 6,
      "debug_info" : "MobilenetV2\/expanded_conv_15\/expand\/Relu6:0",
      "top" : "MobilenetV2\/expanded_conv_15\/expand\/Relu6:0",
      "type" : "activation",
      "name" : "MobilenetV2\/expanded_conv_15\/expand\/Relu6:0",
      "beta" : 0
    },
    {
      "pad_r" : 0,
      "fused_relu" : 1,
      "fused_tanh" : 0,
      "debug_info" : "MobilenetV2\/expanded_conv_15\/depthwise\/depthwise:0",
      "pad_fill_mode" : 0,
      "pad_b" : 0,
      "pad_l" : 0,
      "top" : "relu_MobilenetV2\/expanded_conv_15\/depthwise\/Relu6:0",
      "K" : 960,
      "blob_biases" : 377,
      "name" : "MobilenetV2\/expanded_conv_15\/depthwise\/depthwise:0",
      "has_batch_norm" : 0,
      "type" : "convolution",
      "n_groups" : 960,
      "pad_t" : 0,
      "has_biases" : 1,
      "C" : 960,
      "bottom" : "MobilenetV2\/expanded_conv_15\/expand\/Relu6:0",
      "weights" : {
        "W_U8" : 379,
        "per_ch_qscale" : 383,
        "per_ch_qbias" : 381
      },
      "Nx" : 3,
      "pad_mode" : 1,
      "pad_value" : 0,
      "Ny" : 3,
      "n_parallel" : 1
    },
    {
      "alpha" : -1,
      "bottom" : "relu_MobilenetV2\/expanded_conv_15\/depthwise\/Relu6:0",
      "weights" : {

      },
      "mode" : 6,
      "debug_info" : "relu_MobilenetV2\/expanded_conv_15\/depthwise\/Relu6:0_neg",
      "top" : "relu_MobilenetV2\/expanded_conv_15\/depthwise\/Relu6:0_neg",
      "type" : "activation",
      "name" : "relu_MobilenetV2\/expanded_conv_15\/depthwise\/Relu6:0_neg",
      "beta" : 0
    },
    {
      "bottom" : "relu_MobilenetV2\/expanded_conv_15\/depthwise\/Relu6:0_neg",
      "alpha" : -6,
      "operation" : 25,
      "weights" : {

      },
      "fused_relu" : 0,
      "debug_info" : "relu_MobilenetV2\/expanded_conv_15\/depthwise\/Relu6:0_clip",
      "top" : "relu_MobilenetV2\/expanded_conv_15\/depthwise\/Relu6:0_clip",
      "type" : "elementwise",
      "name" : "relu_MobilenetV2\/expanded_conv_15\/depthwise\/Relu6:0_clip",
      "beta" : 0
    },
    {
      "alpha" : -1,
      "bottom" : "relu_MobilenetV2\/expanded_conv_15\/depthwise\/Relu6:0_clip",
      "weights" : {

      },
      "mode" : 6,
      "debug_info" : "MobilenetV2\/expanded_conv_15\/depthwise\/Relu6:0",
      "top" : "MobilenetV2\/expanded_conv_15\/depthwise\/Relu6:0",
      "type" : "activation",
      "name" : "MobilenetV2\/expanded_conv_15\/depthwise\/Relu6:0",
      "beta" : 0
    },
    {
      "pad_r" : 0,
      "fused_relu" : 0,
      "fused_tanh" : 0,
      "debug_info" : "MobilenetV2\/expanded_conv_15\/project\/Conv2D:0",
      "pad_fill_mode" : 0,
      "pad_b" : 0,
      "pad_l" : 0,
      "top" : "MobilenetV2\/expanded_conv_15\/project\/BatchNorm\/FusedBatchNorm:0",
      "K" : 960,
      "blob_biases" : 385,
      "name" : "MobilenetV2\/expanded_conv_15\/project\/Conv2D:0",
      "has_batch_norm" : 0,
      "type" : "convolution",
      "n_groups" : 1,
      "pad_t" : 0,
      "has_biases" : 1,
      "C" : 160,
      "bottom" : "MobilenetV2\/expanded_conv_15\/depthwise\/Relu6:0",
      "weights" : {
        "W_U8" : 387,
        "per_ch_qscale" : 391,
        "per_ch_qbias" : 389
      },
      "Nx" : 1,
      "pad_mode" : 1,
      "pad_value" : 0,
      "Ny" : 1,
      "n_parallel" : 1
    },
    {
      "bottom" : "MobilenetV2\/expanded_conv_15\/project\/BatchNorm\/FusedBatchNorm:0,MobilenetV2\/expanded_conv_14\/add:0",
      "alpha" : 1,
      "operation" : 0,
      "weights" : {

      },
      "fused_relu" : 0,
      "debug_info" : "MobilenetV2\/expanded_conv_15\/add:0",
      "top" : "MobilenetV2\/expanded_conv_15\/add:0",
      "type" : "elementwise",
      "name" : "MobilenetV2\/expanded_conv_15\/add:0",
      "beta" : 0
    },
    {
      "pad_r" : 0,
      "fused_relu" : 1,
      "fused_tanh" : 0,
      "debug_info" : "MobilenetV2\/expanded_conv_16\/expand\/Conv2D:0",
      "pad_fill_mode" : 0,
      "pad_b" : 0,
      "pad_l" : 0,
      "top" : "relu_MobilenetV2\/expanded_conv_16\/expand\/Relu6:0",
      "K" : 160,
      "blob_biases" : 393,
      "name" : "MobilenetV2\/expanded_conv_16\/expand\/Conv2D:0",
      "has_batch_norm" : 0,
      "type" : "convolution",
      "n_groups" : 1,
      "pad_t" : 0,
      "has_biases" : 1,
      "C" : 960,
      "bottom" : "MobilenetV2\/expanded_conv_15\/add:0",
      "weights" : {
        "W_U8" : 395,
        "per_ch_qscale" : 399,
        "per_ch_qbias" : 397
      },
      "Nx" : 1,
      "pad_mode" : 1,
      "pad_value" : 0,
      "Ny" : 1,
      "n_parallel" : 1
    },
    {
      "alpha" : -1,
      "bottom" : "relu_MobilenetV2\/expanded_conv_16\/expand\/Relu6:0",
      "weights" : {

      },
      "mode" : 6,
      "debug_info" : "relu_MobilenetV2\/expanded_conv_16\/expand\/Relu6:0_neg",
      "top" : "relu_MobilenetV2\/expanded_conv_16\/expand\/Relu6:0_neg",
      "type" : "activation",
      "name" : "relu_MobilenetV2\/expanded_conv_16\/expand\/Relu6:0_neg",
      "beta" : 0
    },
    {
      "bottom" : "relu_MobilenetV2\/expanded_conv_16\/expand\/Relu6:0_neg",
      "alpha" : -6,
      "operation" : 25,
      "weights" : {

      },
      "fused_relu" : 0,
      "debug_info" : "relu_MobilenetV2\/expanded_conv_16\/expand\/Relu6:0_clip",
      "top" : "relu_MobilenetV2\/expanded_conv_16\/expand\/Relu6:0_clip",
      "type" : "elementwise",
      "name" : "relu_MobilenetV2\/expanded_conv_16\/expand\/Relu6:0_clip",
      "beta" : 0
    },
    {
      "alpha" : -1,
      "bottom" : "relu_MobilenetV2\/expanded_conv_16\/expand\/Relu6:0_clip",
      "weights" : {

      },
      "mode" : 6,
      "debug_info" : "MobilenetV2\/expanded_conv_16\/expand\/Relu6:0",
      "top" : "MobilenetV2\/expanded_conv_16\/expand\/Relu6:0",
      "type" : "activation",
      "name" : "MobilenetV2\/expanded_conv_16\/expand\/Relu6:0",
      "beta" : 0
    },
    {
      "pad_r" : 0,
      "fused_relu" : 1,
      "fused_tanh" : 0,
      "debug_info" : "MobilenetV2\/expanded_conv_16\/depthwise\/depthwise:0",
      "pad_fill_mode" : 0,
      "pad_b" : 0,
      "pad_l" : 0,
      "top" : "relu_MobilenetV2\/expanded_conv_16\/depthwise\/Relu6:0",
      "K" : 960,
      "blob_biases" : 401,
      "name" : "MobilenetV2\/expanded_conv_16\/depthwise\/depthwise:0",
      "has_batch_norm" : 0,
      "type" : "convolution",
      "n_groups" : 960,
      "pad_t" : 0,
      "has_biases" : 1,
      "C" : 960,
      "bottom" : "MobilenetV2\/expanded_conv_16\/expand\/Relu6:0",
      "weights" : {
        "W_U8" : 403,
        "per_ch_qscale" : 407,
        "per_ch_qbias" : 405
      },
      "Nx" : 3,
      "pad_mode" : 1,
      "pad_value" : 0,
      "Ny" : 3,
      "n_parallel" : 1
    },
    {
      "alpha" : -1,
      "bottom" : "relu_MobilenetV2\/expanded_conv_16\/depthwise\/Relu6:0",
      "weights" : {

      },
      "mode" : 6,
      "debug_info" : "relu_MobilenetV2\/expanded_conv_16\/depthwise\/Relu6:0_neg",
      "top" : "relu_MobilenetV2\/expanded_conv_16\/depthwise\/Relu6:0_neg",
      "type" : "activation",
      "name" : "relu_MobilenetV2\/expanded_conv_16\/depthwise\/Relu6:0_neg",
      "beta" : 0
    },
    {
      "bottom" : "relu_MobilenetV2\/expanded_conv_16\/depthwise\/Relu6:0_neg",
      "alpha" : -6,
      "operation" : 25,
      "weights" : {

      },
      "fused_relu" : 0,
      "debug_info" : "relu_MobilenetV2\/expanded_conv_16\/depthwise\/Relu6:0_clip",
      "top" : "relu_MobilenetV2\/expanded_conv_16\/depthwise\/Relu6:0_clip",
      "type" : "elementwise",
      "name" : "relu_MobilenetV2\/expanded_conv_16\/depthwise\/Relu6:0_clip",
      "beta" : 0
    },
    {
      "alpha" : -1,
      "bottom" : "relu_MobilenetV2\/expanded_conv_16\/depthwise\/Relu6:0_clip",
      "weights" : {

      },
      "mode" : 6,
      "debug_info" : "MobilenetV2\/expanded_conv_16\/depthwise\/Relu6:0",
      "top" : "MobilenetV2\/expanded_conv_16\/depthwise\/Relu6:0",
      "type" : "activation",
      "name" : "MobilenetV2\/expanded_conv_16\/depthwise\/Relu6:0",
      "beta" : 0
    },
    {
      "pad_r" : 0,
      "fused_relu" : 0,
      "fused_tanh" : 0,
      "debug_info" : "MobilenetV2\/expanded_conv_16\/project\/Conv2D:0",
      "pad_fill_mode" : 0,
      "pad_b" : 0,
      "pad_l" : 0,
      "top" : "MobilenetV2\/expanded_conv_16\/project\/BatchNorm\/FusedBatchNorm:0",
      "K" : 960,
      "blob_biases" : 409,
      "name" : "MobilenetV2\/expanded_conv_16\/project\/Conv2D:0",
      "has_batch_norm" : 0,
      "type" : "convolution",
      "n_groups" : 1,
      "pad_t" : 0,
      "has_biases" : 1,
      "C" : 320,
      "bottom" : "MobilenetV2\/expanded_conv_16\/depthwise\/Relu6:0",
      "weights" : {
        "W_U8" : 411,
        "per_ch_qscale" : 415,
        "per_ch_qbias" : 413
      },
      "Nx" : 1,
      "pad_mode" : 1,
      "pad_value" : 0,
      "Ny" : 1,
      "n_parallel" : 1
    },
    {
      "pad_r" : 0,
      "fused_relu" : 1,
      "fused_tanh" : 0,
      "debug_info" : "aspp0\/Conv2D:0",
      "pad_fill_mode" : 0,
      "pad_b" : 0,
      "pad_l" : 0,
      "top" : "aspp0\/Relu:0",
      "K" : 320,
      "blob_biases" : 417,
      "name" : "aspp0\/Conv2D:0",
      "has_batch_norm" : 0,
      "type" : "convolution",
      "n_groups" : 1,
      "pad_t" : 0,
      "has_biases" : 1,
      "C" : 256,
      "bottom" : "MobilenetV2\/expanded_conv_16\/project\/BatchNorm\/FusedBatchNorm:0",
      "weights" : {
        "W_U8" : 419,
        "per_ch_qscale" : 423,
        "per_ch_qbias" : 421
      },
      "Nx" : 1,
      "pad_mode" : 1,
      "pad_value" : 0,
      "Ny" : 1,
      "n_parallel" : 1
    },
    {
      "pad_r" : 0,
      "debug_info" : "AvgPool2D\/AvgPool:0",
      "pad_fill_mode" : 0,
      "pad_b" : 0,
      "pad_l" : 0,
      "size_x" : 13,
      "top" : "AvgPool2D\/AvgPool:0",
      "top_shape_style" : 0,
      "stride_x" : 1,
      "avg_or_max" : 0,
      "average_count_exclude_padding" : 1,
      "type" : "pool",
      "name" : "AvgPool2D\/AvgPool:0",
      "pad_t" : 0,
      "stride_y" : 1,
      "bottom" : "MobilenetV2\/expanded_conv_16\/project\/BatchNorm\/FusedBatchNorm:0",
      "weights" : {

      },
      "pad_mode" : 2,
      "size_y" : 13,
      "pad_value" : 0
    },
    {
      "pad_r" : 0,
      "fused_relu" : 1,
      "fused_tanh" : 0,
      "debug_info" : "image_pooling\/Conv2D:0",
      "pad_fill_mode" : 0,
      "pad_b" : 0,
      "pad_l" : 0,
      "top" : "image_pooling\/Relu:0",
      "K" : 320,
      "blob_biases" : 425,
      "name" : "image_pooling\/Conv2D:0",
      "has_batch_norm" : 0,
      "type" : "convolution",
      "n_groups" : 1,
      "pad_t" : 0,
      "has_biases" : 1,
      "C" : 256,
      "bottom" : "AvgPool2D\/AvgPool:0",
      "weights" : {
        "W_U8" : 427,
        "per_ch_qscale" : 431,
        "per_ch_qbias" : 429
      },
      "Nx" : 1,
      "pad_mode" : 1,
      "pad_value" : 0,
      "Ny" : 1,
      "n_parallel" : 1
    },
    {
      "bottom" : "image_pooling\/Relu:0",
      "target_size_w" : 13,
      "spatial_scale" : 1,
      "weights" : {

      },
      "grid_sampling_mode" : 1,
      "debug_info" : "ResizeBilinear:0",
      "target_size_h" : 13,
      "top" : "ResizeBilinear:0",
      "type" : "crop_and_resize",
      "name" : "ResizeBilinear:0",
      "crop_index_mode" : 0
    },
    {
      "weights" : {

      },
      "debug_info" : "concat:0",
      "top" : "concat:0",
      "type" : "concat",
      "name" : "concat:0",
      "bottom" : "ResizeBilinear:0,aspp0\/Relu:0"
    },
    {
      "pad_r" : 0,
      "fused_relu" : 1,
      "fused_tanh" : 0,
      "debug_info" : "concat_projection\/Conv2D:0",
      "pad_fill_mode" : 0,
      "pad_b" : 0,
      "pad_l" : 0,
      "top" : "concat_projection\/Relu:0",
      "K" : 512,
      "blob_biases" : 433,
      "name" : "concat_projection\/Conv2D:0",
      "has_batch_norm" : 0,
      "type" : "convolution",
      "n_groups" : 1,
      "pad_t" : 0,
      "has_biases" : 1,
      "C" : 256,
      "bottom" : "concat:0",
      "weights" : {
        "W_U8" : 435,
        "per_ch_qscale" : 439,
        "per_ch_qbias" : 437
      },
      "Nx" : 1,
      "pad_mode" : 1,
      "pad_value" : 0,
      "Ny" : 1,
      "n_parallel" : 1
    },
    {
      "bottom" : "concat_projection\/Relu:0",
      "target_size_w" : 97,
      "spatial_scale" : 1,
      "weights" : {

      },
      "grid_sampling_mode" : 1,
      "debug_info" : "decoder\/ResizeBilinear:0",
      "target_size_h" : 97,
      "top" : "decoder\/ResizeBilinear:0",
      "type" : "crop_and_resize",
      "name" : "decoder\/ResizeBilinear:0",
      "crop_index_mode" : 0
    },
    {
      "weights" : {

      },
      "debug_info" : "decoder\/concat:0",
      "top" : "decoder\/concat:0",
      "type" : "concat",
      "name" : "decoder\/concat:0",
      "bottom" : "decoder\/ResizeBilinear:0,decoder\/ResizeBilinear_1:0"
    },
    {
      "pad_r" : 0,
      "fused_relu" : 1,
      "fused_tanh" : 0,
      "debug_info" : "decoder\/decoder_conv0_depthwise\/depthwise:0",
      "pad_fill_mode" : 0,
      "pad_b" : 0,
      "pad_l" : 0,
      "top" : "decoder\/decoder_conv0_depthwise\/Relu:0",
      "K" : 304,
      "blob_biases" : 441,
      "name" : "decoder\/decoder_conv0_depthwise\/depthwise:0",
      "has_batch_norm" : 0,
      "type" : "convolution",
      "n_groups" : 304,
      "pad_t" : 0,
      "has_biases" : 1,
      "C" : 304,
      "bottom" : "decoder\/concat:0",
      "weights" : {
        "W_U8" : 443,
        "per_ch_qscale" : 447,
        "per_ch_qbias" : 445
      },
      "Nx" : 3,
      "pad_mode" : 1,
      "pad_value" : 0,
      "Ny" : 3,
      "n_parallel" : 1
    },
    {
      "pad_r" : 0,
      "fused_relu" : 1,
      "fused_tanh" : 0,
      "debug_info" : "decoder\/decoder_conv0_pointwise\/Conv2D:0",
      "pad_fill_mode" : 0,
      "pad_b" : 0,
      "pad_l" : 0,
      "top" : "decoder\/decoder_conv0_pointwise\/Relu:0",
      "K" : 304,
      "blob_biases" : 449,
      "name" : "decoder\/decoder_conv0_pointwise\/Conv2D:0",
      "has_batch_norm" : 0,
      "type" : "convolution",
      "n_groups" : 1,
      "pad_t" : 0,
      "has_biases" : 1,
      "C" : 256,
      "bottom" : "decoder\/decoder_conv0_depthwise\/Relu:0",
      "weights" : {
        "W_U8" : 451,
        "per_ch_qscale" : 455,
        "per_ch_qbias" : 453
      },
      "Nx" : 1,
      "pad_mode" : 1,
      "pad_value" : 0,
      "Ny" : 1,
      "n_parallel" : 1
    },
    {
      "pad_r" : 0,
      "fused_relu" : 1,
      "fused_tanh" : 0,
      "debug_info" : "decoder\/decoder_conv1_depthwise\/depthwise:0",
      "pad_fill_mode" : 0,
      "pad_b" : 0,
      "pad_l" : 0,
      "top" : "decoder\/decoder_conv1_depthwise\/Relu:0",
      "K" : 256,
      "blob_biases" : 457,
      "name" : "decoder\/decoder_conv1_depthwise\/depthwise:0",
      "has_batch_norm" : 0,
      "type" : "convolution",
      "n_groups" : 256,
      "pad_t" : 0,
      "has_biases" : 1,
      "C" : 256,
      "bottom" : "decoder\/decoder_conv0_pointwise\/Relu:0",
      "weights" : {
        "W_U8" : 459,
        "per_ch_qscale" : 463,
        "per_ch_qbias" : 461
      },
      "Nx" : 3,
      "pad_mode" : 1,
      "pad_value" : 0,
      "Ny" : 3,
      "n_parallel" : 1
    },
    {
      "pad_r" : 0,
      "fused_relu" : 1,
      "fused_tanh" : 0,
      "debug_info" : "decoder\/decoder_conv1_pointwise\/Conv2D:0",
      "pad_fill_mode" : 0,
      "pad_b" : 0,
      "pad_l" : 0,
      "top" : "decoder\/decoder_conv1_pointwise\/Relu:0",
      "K" : 256,
      "blob_biases" : 465,
      "name" : "decoder\/decoder_conv1_pointwise\/Conv2D:0",
      "has_batch_norm" : 0,
      "type" : "convolution",
      "n_groups" : 1,
      "pad_t" : 0,
      "has_biases" : 1,
      "C" : 256,
      "bottom" : "decoder\/decoder_conv1_depthwise\/Relu:0",
      "weights" : {
        "W_U8" : 467,
        "per_ch_qscale" : 471,
        "per_ch_qbias" : 469
      },
      "Nx" : 1,
      "pad_mode" : 1,
      "pad_value" : 0,
      "Ny" : 1,
      "n_parallel" : 1
    },
    {
      "pad_r" : 0,
      "fused_relu" : 0,
      "fused_tanh" : 0,
      "debug_info" : "logits\/semantic\/Conv2D:0",
      "pad_fill_mode" : 0,
      "pad_b" : 0,
      "pad_l" : 0,
      "top" : "logits\/semantic\/BiasAdd:0",
      "K" : 256,
      "blob_biases" : 473,
      "name" : "logits\/semantic\/Conv2D:0",
      "has_batch_norm" : 0,
      "type" : "convolution",
      "n_groups" : 1,
      "pad_t" : 0,
      "has_biases" : 1,
      "C" : 2,
      "bottom" : "decoder\/decoder_conv1_pointwise\/Relu:0",
      "weights" : {
        "W_U8" : 475,
        "per_ch_qscale" : 479,
        "per_ch_qbias" : 477
      },
      "Nx" : 1,
      "pad_mode" : 1,
      "pad_value" : 0,
      "Ny" : 1,
      "n_parallel" : 1
    },
    {
      "bottom" : "logits\/semantic\/BiasAdd:0",
      "target_size_w" : 97,
      "spatial_scale" : 1,
      "weights" : {

      },
      "grid_sampling_mode" : 1,
      "debug_info" : "ResizeBilinear_1:0",
      "target_size_h" : 97,
      "top" : "ResizeBilinear_1:0",
      "type" : "crop_and_resize",
      "name" : "ResizeBilinear_1:0",
      "crop_index_mode" : 0
    },
    {
      "bottom" : "ResizeBilinear_1:0",
      "target_size_w" : 385,
      "spatial_scale" : 1,
      "weights" : {

      },
      "grid_sampling_mode" : 1,
      "debug_info" : "ResizeBilinear_2:0",
      "target_size_h" : 385,
      "top" : "ResizeBilinear_2:0",
      "type" : "crop_and_resize",
      "name" : "ResizeBilinear_2:0",
      "crop_index_mode" : 0
    },
    {
      "axis_mode" : 4,
      "bottom" : "ResizeBilinear_2:0",
      "weights" : {

      },
      "mode" : 11,
      "debug_info" : "ArgMax:0",
      "use_version" : 1,
      "top" : "ArgMax:0",
      "type" : "reduce",
      "name" : "ArgMax:0"
    },
    {
      "bottom" : "ArgMax:0",
      "alpha" : 255,
      "operation" : 1,
      "beta" : 0,
      "weights" : {

      },
      "fused_relu" : 0,
      "debug_info" : "Mul_1:0",
      "top" : "SemanticPredictions__0",
      "type" : "elementwise",
      "name" : "Mul_1:0",
      "attributes" : {
        "is_output" : 1
      }
    }
  ],
  "transform_params" : {
    "ImageTensor__0" : {
      "bias_a" : 0,
      "bias_g" : 0,
      "bias_r" : 0,
      "bias_b" : 0,
      "center_mean" : 0,
      "is_network_bgr" : 0,
      "scale" : 1
    }
  },
  "storage" : "model.espresso.weights",
  "metadata_in_weights" : [

  ],
  "properties" : {

  },
  "analyses" : {

  },
  "format_version" : 200
}